node {
  name: "Placeholder"
  op: "Placeholder"
  attr {
    key: "dtype"
    value {
      type: DT_FLOAT
    }
  }
  attr {
    key: "shape"
    value {
      shape {
        dim {
          size: -1
        }
        dim {
          size: -1
        }
        dim {
          size: -1
        }
        dim {
          size: 3
        }
      }
    }
  }
}
node {
  name: "img_mean"
  op: "Const"
  attr {
    key: "dtype"
    value {
      type: DT_FLOAT
    }
  }
  attr {
    key: "value"
    value {
      tensor {
        dtype: DT_FLOAT
        tensor_shape {
          dim {
            size: 1
          }
          dim {
            size: 1
          }
          dim {
            size: 1
          }
          dim {
            size: 3
          }
        }
        tensor_content: ")\\\367B\331\216\351B\305\340\317B"
      }
    }
  }
}
node {
  name: "sub"
  op: "Sub"
  input: "Placeholder"
  input: "img_mean"
  attr {
    key: "T"
    value {
      type: DT_FLOAT
    }
  }
}
node {
  name: "MobilenetV2/input"
  op: "Identity"
  input: "sub"
  attr {
    key: "T"
    value {
      type: DT_FLOAT
    }
  }
}
node {
  name: "MobilenetV2/Conv/weights/Initializer/truncated_normal/shape"
  op: "Const"
  attr {
    key: "_class"
    value {
      list {
        s: "loc:@MobilenetV2/Conv/weights"
      }
    }
  }
  attr {
    key: "dtype"
    value {
      type: DT_INT32
    }
  }
  attr {
    key: "value"
    value {
      tensor {
        dtype: DT_INT32
        tensor_shape {
          dim {
            size: 4
          }
        }
        tensor_content: "\003\000\000\000\003\000\000\000\003\000\000\000\020\000\000\000"
      }
    }
  }
}
node {
  name: "MobilenetV2/Conv/weights/Initializer/truncated_normal/mean"
  op: "Const"
  attr {
    key: "_class"
    value {
      list {
        s: "loc:@MobilenetV2/Conv/weights"
      }
    }
  }
  attr {
    key: "dtype"
    value {
      type: DT_FLOAT
    }
  }
  attr {
    key: "value"
    value {
      tensor {
        dtype: DT_FLOAT
        tensor_shape {
        }
        float_val: 0.0
      }
    }
  }
}
node {
  name: "MobilenetV2/Conv/weights/Initializer/truncated_normal/stddev"
  op: "Const"
  attr {
    key: "_class"
    value {
      list {
        s: "loc:@MobilenetV2/Conv/weights"
      }
    }
  }
  attr {
    key: "dtype"
    value {
      type: DT_FLOAT
    }
  }
  attr {
    key: "value"
    value {
      tensor {
        dtype: DT_FLOAT
        tensor_shape {
        }
        float_val: 0.09000000357627869
      }
    }
  }
}
node {
  name: "MobilenetV2/Conv/weights/Initializer/truncated_normal/TruncatedNormal"
  op: "TruncatedNormal"
  input: "MobilenetV2/Conv/weights/Initializer/truncated_normal/shape"
  attr {
    key: "T"
    value {
      type: DT_INT32
    }
  }
  attr {
    key: "_class"
    value {
      list {
        s: "loc:@MobilenetV2/Conv/weights"
      }
    }
  }
  attr {
    key: "dtype"
    value {
      type: DT_FLOAT
    }
  }
  attr {
    key: "seed"
    value {
      i: 0
    }
  }
  attr {
    key: "seed2"
    value {
      i: 0
    }
  }
}
node {
  name: "MobilenetV2/Conv/weights/Initializer/truncated_normal/mul"
  op: "Mul"
  input: "MobilenetV2/Conv/weights/Initializer/truncated_normal/TruncatedNormal"
  input: "MobilenetV2/Conv/weights/Initializer/truncated_normal/stddev"
  attr {
    key: "T"
    value {
      type: DT_FLOAT
    }
  }
  attr {
    key: "_class"
    value {
      list {
        s: "loc:@MobilenetV2/Conv/weights"
      }
    }
  }
}
node {
  name: "MobilenetV2/Conv/weights/Initializer/truncated_normal"
  op: "AddV2"
  input: "MobilenetV2/Conv/weights/Initializer/truncated_normal/mul"
  input: "MobilenetV2/Conv/weights/Initializer/truncated_normal/mean"
  attr {
    key: "T"
    value {
      type: DT_FLOAT
    }
  }
  attr {
    key: "_class"
    value {
      list {
        s: "loc:@MobilenetV2/Conv/weights"
      }
    }
  }
}
node {
  name: "MobilenetV2/Conv/weights"
  op: "VarHandleOp"
  attr {
    key: "_class"
    value {
      list {
        s: "loc:@MobilenetV2/Conv/weights"
      }
    }
  }
  attr {
    key: "allowed_devices"
    value {
      list {
      }
    }
  }
  attr {
    key: "container"
    value {
      s: ""
    }
  }
  attr {
    key: "dtype"
    value {
      type: DT_FLOAT
    }
  }
  attr {
    key: "shape"
    value {
      shape {
        dim {
          size: 3
        }
        dim {
          size: 3
        }
        dim {
          size: 3
        }
        dim {
          size: 16
        }
      }
    }
  }
  attr {
    key: "shared_name"
    value {
      s: "MobilenetV2/Conv/weights"
    }
  }
}
node {
  name: "MobilenetV2/Conv/weights/IsInitialized/VarIsInitializedOp"
  op: "VarIsInitializedOp"
  input: "MobilenetV2/Conv/weights"
}
node {
  name: "MobilenetV2/Conv/weights/Assign"
  op: "AssignVariableOp"
  input: "MobilenetV2/Conv/weights"
  input: "MobilenetV2/Conv/weights/Initializer/truncated_normal"
  attr {
    key: "dtype"
    value {
      type: DT_FLOAT
    }
  }
  attr {
    key: "validate_shape"
    value {
      b: false
    }
  }
}
node {
  name: "MobilenetV2/Conv/weights/Read/ReadVariableOp"
  op: "ReadVariableOp"
  input: "MobilenetV2/Conv/weights"
  attr {
    key: "dtype"
    value {
      type: DT_FLOAT
    }
  }
}
node {
  name: "MobilenetV2/Conv/kernel/Regularizer/Square/ReadVariableOp"
  op: "ReadVariableOp"
  input: "MobilenetV2/Conv/weights"
  attr {
    key: "dtype"
    value {
      type: DT_FLOAT
    }
  }
}
node {
  name: "MobilenetV2/Conv/kernel/Regularizer/Square"
  op: "Square"
  input: "MobilenetV2/Conv/kernel/Regularizer/Square/ReadVariableOp"
  attr {
    key: "T"
    value {
      type: DT_FLOAT
    }
  }
}
node {
  name: "MobilenetV2/Conv/kernel/Regularizer/Const"
  op: "Const"
  attr {
    key: "dtype"
    value {
      type: DT_INT32
    }
  }
  attr {
    key: "value"
    value {
      tensor {
        dtype: DT_INT32
        tensor_shape {
          dim {
            size: 4
          }
        }
        tensor_content: "\000\000\000\000\001\000\000\000\002\000\000\000\003\000\000\000"
      }
    }
  }
}
node {
  name: "MobilenetV2/Conv/kernel/Regularizer/Sum"
  op: "Sum"
  input: "MobilenetV2/Conv/kernel/Regularizer/Square"
  input: "MobilenetV2/Conv/kernel/Regularizer/Const"
  attr {
    key: "T"
    value {
      type: DT_FLOAT
    }
  }
  attr {
    key: "Tidx"
    value {
      type: DT_INT32
    }
  }
  attr {
    key: "keep_dims"
    value {
      b: false
    }
  }
}
node {
  name: "MobilenetV2/Conv/kernel/Regularizer/mul/x"
  op: "Const"
  attr {
    key: "dtype"
    value {
      type: DT_FLOAT
    }
  }
  attr {
    key: "value"
    value {
      tensor {
        dtype: DT_FLOAT
        tensor_shape {
        }
        float_val: 1.9999999494757503e-05
      }
    }
  }
}
node {
  name: "MobilenetV2/Conv/kernel/Regularizer/mul"
  op: "Mul"
  input: "MobilenetV2/Conv/kernel/Regularizer/mul/x"
  input: "MobilenetV2/Conv/kernel/Regularizer/Sum"
  attr {
    key: "T"
    value {
      type: DT_FLOAT
    }
  }
}
node {
  name: "MobilenetV2/Conv/Conv2D/ReadVariableOp"
  op: "ReadVariableOp"
  input: "MobilenetV2/Conv/weights"
  attr {
    key: "dtype"
    value {
      type: DT_FLOAT
    }
  }
}
node {
  name: "MobilenetV2/Conv/Conv2D"
  op: "Conv2D"
  input: "MobilenetV2/input"
  input: "MobilenetV2/Conv/Conv2D/ReadVariableOp"
  attr {
    key: "T"
    value {
      type: DT_FLOAT
    }
  }
  attr {
    key: "data_format"
    value {
      s: "NHWC"
    }
  }
  attr {
    key: "dilations"
    value {
      list {
        i: 1
        i: 1
        i: 1
        i: 1
      }
    }
  }
  attr {
    key: "explicit_paddings"
    value {
      list {
      }
    }
  }
  attr {
    key: "padding"
    value {
      s: "SAME"
    }
  }
  attr {
    key: "strides"
    value {
      list {
        i: 1
        i: 2
        i: 2
        i: 1
      }
    }
  }
  attr {
    key: "use_cudnn_on_gpu"
    value {
      b: true
    }
  }
}
node {
  name: "MobilenetV2/Conv/BatchNorm/gamma/Initializer/ones"
  op: "Const"
  attr {
    key: "_class"
    value {
      list {
        s: "loc:@MobilenetV2/Conv/BatchNorm/gamma"
      }
    }
  }
  attr {
    key: "dtype"
    value {
      type: DT_FLOAT
    }
  }
  attr {
    key: "value"
    value {
      tensor {
        dtype: DT_FLOAT
        tensor_shape {
          dim {
            size: 16
          }
        }
        float_val: 1.0
      }
    }
  }
}
node {
  name: "MobilenetV2/Conv/BatchNorm/gamma"
  op: "VarHandleOp"
  attr {
    key: "_class"
    value {
      list {
        s: "loc:@MobilenetV2/Conv/BatchNorm/gamma"
      }
    }
  }
  attr {
    key: "allowed_devices"
    value {
      list {
      }
    }
  }
  attr {
    key: "container"
    value {
      s: ""
    }
  }
  attr {
    key: "dtype"
    value {
      type: DT_FLOAT
    }
  }
  attr {
    key: "shape"
    value {
      shape {
        dim {
          size: 16
        }
      }
    }
  }
  attr {
    key: "shared_name"
    value {
      s: "MobilenetV2/Conv/BatchNorm/gamma"
    }
  }
}
node {
  name: "MobilenetV2/Conv/BatchNorm/gamma/IsInitialized/VarIsInitializedOp"
  op: "VarIsInitializedOp"
  input: "MobilenetV2/Conv/BatchNorm/gamma"
}
node {
  name: "MobilenetV2/Conv/BatchNorm/gamma/Assign"
  op: "AssignVariableOp"
  input: "MobilenetV2/Conv/BatchNorm/gamma"
  input: "MobilenetV2/Conv/BatchNorm/gamma/Initializer/ones"
  attr {
    key: "dtype"
    value {
      type: DT_FLOAT
    }
  }
  attr {
    key: "validate_shape"
    value {
      b: false
    }
  }
}
node {
  name: "MobilenetV2/Conv/BatchNorm/gamma/Read/ReadVariableOp"
  op: "ReadVariableOp"
  input: "MobilenetV2/Conv/BatchNorm/gamma"
  attr {
    key: "dtype"
    value {
      type: DT_FLOAT
    }
  }
}
node {
  name: "MobilenetV2/Conv/BatchNorm/beta/Initializer/zeros"
  op: "Const"
  attr {
    key: "_class"
    value {
      list {
        s: "loc:@MobilenetV2/Conv/BatchNorm/beta"
      }
    }
  }
  attr {
    key: "dtype"
    value {
      type: DT_FLOAT
    }
  }
  attr {
    key: "value"
    value {
      tensor {
        dtype: DT_FLOAT
        tensor_shape {
          dim {
            size: 16
          }
        }
        float_val: 0.0
      }
    }
  }
}
node {
  name: "MobilenetV2/Conv/BatchNorm/beta"
  op: "VarHandleOp"
  attr {
    key: "_class"
    value {
      list {
        s: "loc:@MobilenetV2/Conv/BatchNorm/beta"
      }
    }
  }
  attr {
    key: "allowed_devices"
    value {
      list {
      }
    }
  }
  attr {
    key: "container"
    value {
      s: ""
    }
  }
  attr {
    key: "dtype"
    value {
      type: DT_FLOAT
    }
  }
  attr {
    key: "shape"
    value {
      shape {
        dim {
          size: 16
        }
      }
    }
  }
  attr {
    key: "shared_name"
    value {
      s: "MobilenetV2/Conv/BatchNorm/beta"
    }
  }
}
node {
  name: "MobilenetV2/Conv/BatchNorm/beta/IsInitialized/VarIsInitializedOp"
  op: "VarIsInitializedOp"
  input: "MobilenetV2/Conv/BatchNorm/beta"
}
node {
  name: "MobilenetV2/Conv/BatchNorm/beta/Assign"
  op: "AssignVariableOp"
  input: "MobilenetV2/Conv/BatchNorm/beta"
  input: "MobilenetV2/Conv/BatchNorm/beta/Initializer/zeros"
  attr {
    key: "dtype"
    value {
      type: DT_FLOAT
    }
  }
  attr {
    key: "validate_shape"
    value {
      b: false
    }
  }
}
node {
  name: "MobilenetV2/Conv/BatchNorm/beta/Read/ReadVariableOp"
  op: "ReadVariableOp"
  input: "MobilenetV2/Conv/BatchNorm/beta"
  attr {
    key: "dtype"
    value {
      type: DT_FLOAT
    }
  }
}
node {
  name: "MobilenetV2/Conv/BatchNorm/moving_mean/Initializer/zeros"
  op: "Const"
  attr {
    key: "_class"
    value {
      list {
        s: "loc:@MobilenetV2/Conv/BatchNorm/moving_mean"
      }
    }
  }
  attr {
    key: "dtype"
    value {
      type: DT_FLOAT
    }
  }
  attr {
    key: "value"
    value {
      tensor {
        dtype: DT_FLOAT
        tensor_shape {
          dim {
            size: 16
          }
        }
        float_val: 0.0
      }
    }
  }
}
node {
  name: "MobilenetV2/Conv/BatchNorm/moving_mean"
  op: "VarHandleOp"
  attr {
    key: "_class"
    value {
      list {
        s: "loc:@MobilenetV2/Conv/BatchNorm/moving_mean"
      }
    }
  }
  attr {
    key: "allowed_devices"
    value {
      list {
      }
    }
  }
  attr {
    key: "container"
    value {
      s: ""
    }
  }
  attr {
    key: "dtype"
    value {
      type: DT_FLOAT
    }
  }
  attr {
    key: "shape"
    value {
      shape {
        dim {
          size: 16
        }
      }
    }
  }
  attr {
    key: "shared_name"
    value {
      s: "MobilenetV2/Conv/BatchNorm/moving_mean"
    }
  }
}
node {
  name: "MobilenetV2/Conv/BatchNorm/moving_mean/IsInitialized/VarIsInitializedOp"
  op: "VarIsInitializedOp"
  input: "MobilenetV2/Conv/BatchNorm/moving_mean"
}
node {
  name: "MobilenetV2/Conv/BatchNorm/moving_mean/Assign"
  op: "AssignVariableOp"
  input: "MobilenetV2/Conv/BatchNorm/moving_mean"
  input: "MobilenetV2/Conv/BatchNorm/moving_mean/Initializer/zeros"
  attr {
    key: "dtype"
    value {
      type: DT_FLOAT
    }
  }
  attr {
    key: "validate_shape"
    value {
      b: false
    }
  }
}
node {
  name: "MobilenetV2/Conv/BatchNorm/moving_mean/Read/ReadVariableOp"
  op: "ReadVariableOp"
  input: "MobilenetV2/Conv/BatchNorm/moving_mean"
  attr {
    key: "dtype"
    value {
      type: DT_FLOAT
    }
  }
}
node {
  name: "MobilenetV2/Conv/BatchNorm/moving_variance/Initializer/ones"
  op: "Const"
  attr {
    key: "_class"
    value {
      list {
        s: "loc:@MobilenetV2/Conv/BatchNorm/moving_variance"
      }
    }
  }
  attr {
    key: "dtype"
    value {
      type: DT_FLOAT
    }
  }
  attr {
    key: "value"
    value {
      tensor {
        dtype: DT_FLOAT
        tensor_shape {
          dim {
            size: 16
          }
        }
        float_val: 1.0
      }
    }
  }
}
node {
  name: "MobilenetV2/Conv/BatchNorm/moving_variance"
  op: "VarHandleOp"
  attr {
    key: "_class"
    value {
      list {
        s: "loc:@MobilenetV2/Conv/BatchNorm/moving_variance"
      }
    }
  }
  attr {
    key: "allowed_devices"
    value {
      list {
      }
    }
  }
  attr {
    key: "container"
    value {
      s: ""
    }
  }
  attr {
    key: "dtype"
    value {
      type: DT_FLOAT
    }
  }
  attr {
    key: "shape"
    value {
      shape {
        dim {
          size: 16
        }
      }
    }
  }
  attr {
    key: "shared_name"
    value {
      s: "MobilenetV2/Conv/BatchNorm/moving_variance"
    }
  }
}
node {
  name: "MobilenetV2/Conv/BatchNorm/moving_variance/IsInitialized/VarIsInitializedOp"
  op: "VarIsInitializedOp"
  input: "MobilenetV2/Conv/BatchNorm/moving_variance"
}
node {
  name: "MobilenetV2/Conv/BatchNorm/moving_variance/Assign"
  op: "AssignVariableOp"
  input: "MobilenetV2/Conv/BatchNorm/moving_variance"
  input: "MobilenetV2/Conv/BatchNorm/moving_variance/Initializer/ones"
  attr {
    key: "dtype"
    value {
      type: DT_FLOAT
    }
  }
  attr {
    key: "validate_shape"
    value {
      b: false
    }
  }
}
node {
  name: "MobilenetV2/Conv/BatchNorm/moving_variance/Read/ReadVariableOp"
  op: "ReadVariableOp"
  input: "MobilenetV2/Conv/BatchNorm/moving_variance"
  attr {
    key: "dtype"
    value {
      type: DT_FLOAT
    }
  }
}
node {
  name: "MobilenetV2/Conv/BatchNorm/ReadVariableOp"
  op: "ReadVariableOp"
  input: "MobilenetV2/Conv/BatchNorm/gamma"
  attr {
    key: "dtype"
    value {
      type: DT_FLOAT
    }
  }
}
node {
  name: "MobilenetV2/Conv/BatchNorm/ReadVariableOp_1"
  op: "ReadVariableOp"
  input: "MobilenetV2/Conv/BatchNorm/beta"
  attr {
    key: "dtype"
    value {
      type: DT_FLOAT
    }
  }
}
node {
  name: "MobilenetV2/Conv/BatchNorm/FusedBatchNormV3/ReadVariableOp"
  op: "ReadVariableOp"
  input: "MobilenetV2/Conv/BatchNorm/moving_mean"
  attr {
    key: "dtype"
    value {
      type: DT_FLOAT
    }
  }
}
node {
  name: "MobilenetV2/Conv/BatchNorm/FusedBatchNormV3/ReadVariableOp_1"
  op: "ReadVariableOp"
  input: "MobilenetV2/Conv/BatchNorm/moving_variance"
  attr {
    key: "dtype"
    value {
      type: DT_FLOAT
    }
  }
}
node {
  name: "MobilenetV2/Conv/BatchNorm/FusedBatchNormV3"
  op: "FusedBatchNormV3"
  input: "MobilenetV2/Conv/Conv2D"
  input: "MobilenetV2/Conv/BatchNorm/ReadVariableOp"
  input: "MobilenetV2/Conv/BatchNorm/ReadVariableOp_1"
  input: "MobilenetV2/Conv/BatchNorm/FusedBatchNormV3/ReadVariableOp"
  input: "MobilenetV2/Conv/BatchNorm/FusedBatchNormV3/ReadVariableOp_1"
  attr {
    key: "T"
    value {
      type: DT_FLOAT
    }
  }
  attr {
    key: "U"
    value {
      type: DT_FLOAT
    }
  }
  attr {
    key: "data_format"
    value {
      s: "NHWC"
    }
  }
  attr {
    key: "epsilon"
    value {
      f: 0.0010000000474974513
    }
  }
  attr {
    key: "exponential_avg_factor"
    value {
      f: 1.0
    }
  }
  attr {
    key: "is_training"
    value {
      b: true
    }
  }
}
node {
  name: "MobilenetV2/Conv/BatchNorm/Const"
  op: "Const"
  attr {
    key: "dtype"
    value {
      type: DT_FLOAT
    }
  }
  attr {
    key: "value"
    value {
      tensor {
        dtype: DT_FLOAT
        tensor_shape {
        }
        float_val: 0.996999979019165
      }
    }
  }
}
node {
  name: "MobilenetV2/Conv/BatchNorm/AssignMovingAvg/sub/x"
  op: "Const"
  attr {
    key: "_class"
    value {
      list {
        s: "loc:@MobilenetV2/Conv/BatchNorm/moving_mean"
      }
    }
  }
  attr {
    key: "dtype"
    value {
      type: DT_FLOAT
    }
  }
  attr {
    key: "value"
    value {
      tensor {
        dtype: DT_FLOAT
        tensor_shape {
        }
        float_val: 1.0
      }
    }
  }
}
node {
  name: "MobilenetV2/Conv/BatchNorm/AssignMovingAvg/sub"
  op: "Sub"
  input: "MobilenetV2/Conv/BatchNorm/AssignMovingAvg/sub/x"
  input: "MobilenetV2/Conv/BatchNorm/Const"
  attr {
    key: "T"
    value {
      type: DT_FLOAT
    }
  }
  attr {
    key: "_class"
    value {
      list {
        s: "loc:@MobilenetV2/Conv/BatchNorm/moving_mean"
      }
    }
  }
}
node {
  name: "MobilenetV2/Conv/BatchNorm/AssignMovingAvg/ReadVariableOp"
  op: "ReadVariableOp"
  input: "MobilenetV2/Conv/BatchNorm/moving_mean"
  attr {
    key: "dtype"
    value {
      type: DT_FLOAT
    }
  }
}
node {
  name: "MobilenetV2/Conv/BatchNorm/AssignMovingAvg/sub_1"
  op: "Sub"
  input: "MobilenetV2/Conv/BatchNorm/AssignMovingAvg/ReadVariableOp"
  input: "MobilenetV2/Conv/BatchNorm/FusedBatchNormV3:1"
  attr {
    key: "T"
    value {
      type: DT_FLOAT
    }
  }
  attr {
    key: "_class"
    value {
      list {
        s: "loc:@MobilenetV2/Conv/BatchNorm/moving_mean"
      }
    }
  }
}
node {
  name: "MobilenetV2/Conv/BatchNorm/AssignMovingAvg/mul"
  op: "Mul"
  input: "MobilenetV2/Conv/BatchNorm/AssignMovingAvg/sub_1"
  input: "MobilenetV2/Conv/BatchNorm/AssignMovingAvg/sub"
  attr {
    key: "T"
    value {
      type: DT_FLOAT
    }
  }
  attr {
    key: "_class"
    value {
      list {
        s: "loc:@MobilenetV2/Conv/BatchNorm/moving_mean"
      }
    }
  }
}
node {
  name: "MobilenetV2/Conv/BatchNorm/AssignMovingAvg/AssignSubVariableOp"
  op: "AssignSubVariableOp"
  input: "MobilenetV2/Conv/BatchNorm/moving_mean"
  input: "MobilenetV2/Conv/BatchNorm/AssignMovingAvg/mul"
  attr {
    key: "_class"
    value {
      list {
        s: "loc:@MobilenetV2/Conv/BatchNorm/moving_mean"
      }
    }
  }
  attr {
    key: "dtype"
    value {
      type: DT_FLOAT
    }
  }
}
node {
  name: "MobilenetV2/Conv/BatchNorm/AssignMovingAvg/ReadVariableOp_1"
  op: "ReadVariableOp"
  input: "MobilenetV2/Conv/BatchNorm/moving_mean"
  input: "^MobilenetV2/Conv/BatchNorm/AssignMovingAvg/AssignSubVariableOp"
  attr {
    key: "_class"
    value {
      list {
        s: "loc:@MobilenetV2/Conv/BatchNorm/moving_mean"
      }
    }
  }
  attr {
    key: "dtype"
    value {
      type: DT_FLOAT
    }
  }
}
node {
  name: "MobilenetV2/Conv/BatchNorm/AssignMovingAvg_1/sub/x"
  op: "Const"
  attr {
    key: "_class"
    value {
      list {
        s: "loc:@MobilenetV2/Conv/BatchNorm/moving_variance"
      }
    }
  }
  attr {
    key: "dtype"
    value {
      type: DT_FLOAT
    }
  }
  attr {
    key: "value"
    value {
      tensor {
        dtype: DT_FLOAT
        tensor_shape {
        }
        float_val: 1.0
      }
    }
  }
}
node {
  name: "MobilenetV2/Conv/BatchNorm/AssignMovingAvg_1/sub"
  op: "Sub"
  input: "MobilenetV2/Conv/BatchNorm/AssignMovingAvg_1/sub/x"
  input: "MobilenetV2/Conv/BatchNorm/Const"
  attr {
    key: "T"
    value {
      type: DT_FLOAT
    }
  }
  attr {
    key: "_class"
    value {
      list {
        s: "loc:@MobilenetV2/Conv/BatchNorm/moving_variance"
      }
    }
  }
}
node {
  name: "MobilenetV2/Conv/BatchNorm/AssignMovingAvg_1/ReadVariableOp"
  op: "ReadVariableOp"
  input: "MobilenetV2/Conv/BatchNorm/moving_variance"
  attr {
    key: "dtype"
    value {
      type: DT_FLOAT
    }
  }
}
node {
  name: "MobilenetV2/Conv/BatchNorm/AssignMovingAvg_1/sub_1"
  op: "Sub"
  input: "MobilenetV2/Conv/BatchNorm/AssignMovingAvg_1/ReadVariableOp"
  input: "MobilenetV2/Conv/BatchNorm/FusedBatchNormV3:2"
  attr {
    key: "T"
    value {
      type: DT_FLOAT
    }
  }
  attr {
    key: "_class"
    value {
      list {
        s: "loc:@MobilenetV2/Conv/BatchNorm/moving_variance"
      }
    }
  }
}
node {
  name: "MobilenetV2/Conv/BatchNorm/AssignMovingAvg_1/mul"
  op: "Mul"
  input: "MobilenetV2/Conv/BatchNorm/AssignMovingAvg_1/sub_1"
  input: "MobilenetV2/Conv/BatchNorm/AssignMovingAvg_1/sub"
  attr {
    key: "T"
    value {
      type: DT_FLOAT
    }
  }
  attr {
    key: "_class"
    value {
      list {
        s: "loc:@MobilenetV2/Conv/BatchNorm/moving_variance"
      }
    }
  }
}
node {
  name: "MobilenetV2/Conv/BatchNorm/AssignMovingAvg_1/AssignSubVariableOp"
  op: "AssignSubVariableOp"
  input: "MobilenetV2/Conv/BatchNorm/moving_variance"
  input: "MobilenetV2/Conv/BatchNorm/AssignMovingAvg_1/mul"
  attr {
    key: "_class"
    value {
      list {
        s: "loc:@MobilenetV2/Conv/BatchNorm/moving_variance"
      }
    }
  }
  attr {
    key: "dtype"
    value {
      type: DT_FLOAT
    }
  }
}
node {
  name: "MobilenetV2/Conv/BatchNorm/AssignMovingAvg_1/ReadVariableOp_1"
  op: "ReadVariableOp"
  input: "MobilenetV2/Conv/BatchNorm/moving_variance"
  input: "^MobilenetV2/Conv/BatchNorm/AssignMovingAvg_1/AssignSubVariableOp"
  attr {
    key: "_class"
    value {
      list {
        s: "loc:@MobilenetV2/Conv/BatchNorm/moving_variance"
      }
    }
  }
  attr {
    key: "dtype"
    value {
      type: DT_FLOAT
    }
  }
}
node {
  name: "MobilenetV2/Conv/Relu6"
  op: "Relu6"
  input: "MobilenetV2/Conv/BatchNorm/FusedBatchNormV3"
  attr {
    key: "T"
    value {
      type: DT_FLOAT
    }
  }
}
node {
  name: "MobilenetV2/expanded_conv/input"
  op: "Identity"
  input: "MobilenetV2/Conv/Relu6"
  attr {
    key: "T"
    value {
      type: DT_FLOAT
    }
  }
}
node {
  name: "MobilenetV2/expanded_conv/depthwise/depthwise_weights/Initializer/truncated_normal/shape"
  op: "Const"
  attr {
    key: "_class"
    value {
      list {
        s: "loc:@MobilenetV2/expanded_conv/depthwise/depthwise_weights"
      }
    }
  }
  attr {
    key: "dtype"
    value {
      type: DT_INT32
    }
  }
  attr {
    key: "value"
    value {
      tensor {
        dtype: DT_INT32
        tensor_shape {
          dim {
            size: 4
          }
        }
        tensor_content: "\003\000\000\000\003\000\000\000\020\000\000\000\001\000\000\000"
      }
    }
  }
}
node {
  name: "MobilenetV2/expanded_conv/depthwise/depthwise_weights/Initializer/truncated_normal/mean"
  op: "Const"
  attr {
    key: "_class"
    value {
      list {
        s: "loc:@MobilenetV2/expanded_conv/depthwise/depthwise_weights"
      }
    }
  }
  attr {
    key: "dtype"
    value {
      type: DT_FLOAT
    }
  }
  attr {
    key: "value"
    value {
      tensor {
        dtype: DT_FLOAT
        tensor_shape {
        }
        float_val: 0.0
      }
    }
  }
}
node {
  name: "MobilenetV2/expanded_conv/depthwise/depthwise_weights/Initializer/truncated_normal/stddev"
  op: "Const"
  attr {
    key: "_class"
    value {
      list {
        s: "loc:@MobilenetV2/expanded_conv/depthwise/depthwise_weights"
      }
    }
  }
  attr {
    key: "dtype"
    value {
      type: DT_FLOAT
    }
  }
  attr {
    key: "value"
    value {
      tensor {
        dtype: DT_FLOAT
        tensor_shape {
        }
        float_val: 0.09000000357627869
      }
    }
  }
}
node {
  name: "MobilenetV2/expanded_conv/depthwise/depthwise_weights/Initializer/truncated_normal/TruncatedNormal"
  op: "TruncatedNormal"
  input: "MobilenetV2/expanded_conv/depthwise/depthwise_weights/Initializer/truncated_normal/shape"
  attr {
    key: "T"
    value {
      type: DT_INT32
    }
  }
  attr {
    key: "_class"
    value {
      list {
        s: "loc:@MobilenetV2/expanded_conv/depthwise/depthwise_weights"
      }
    }
  }
  attr {
    key: "dtype"
    value {
      type: DT_FLOAT
    }
  }
  attr {
    key: "seed"
    value {
      i: 0
    }
  }
  attr {
    key: "seed2"
    value {
      i: 0
    }
  }
}
node {
  name: "MobilenetV2/expanded_conv/depthwise/depthwise_weights/Initializer/truncated_normal/mul"
  op: "Mul"
  input: "MobilenetV2/expanded_conv/depthwise/depthwise_weights/Initializer/truncated_normal/TruncatedNormal"
  input: "MobilenetV2/expanded_conv/depthwise/depthwise_weights/Initializer/truncated_normal/stddev"
  attr {
    key: "T"
    value {
      type: DT_FLOAT
    }
  }
  attr {
    key: "_class"
    value {
      list {
        s: "loc:@MobilenetV2/expanded_conv/depthwise/depthwise_weights"
      }
    }
  }
}
node {
  name: "MobilenetV2/expanded_conv/depthwise/depthwise_weights/Initializer/truncated_normal"
  op: "AddV2"
  input: "MobilenetV2/expanded_conv/depthwise/depthwise_weights/Initializer/truncated_normal/mul"
  input: "MobilenetV2/expanded_conv/depthwise/depthwise_weights/Initializer/truncated_normal/mean"
  attr {
    key: "T"
    value {
      type: DT_FLOAT
    }
  }
  attr {
    key: "_class"
    value {
      list {
        s: "loc:@MobilenetV2/expanded_conv/depthwise/depthwise_weights"
      }
    }
  }
}
node {
  name: "MobilenetV2/expanded_conv/depthwise/depthwise_weights"
  op: "VarHandleOp"
  attr {
    key: "_class"
    value {
      list {
        s: "loc:@MobilenetV2/expanded_conv/depthwise/depthwise_weights"
      }
    }
  }
  attr {
    key: "allowed_devices"
    value {
      list {
      }
    }
  }
  attr {
    key: "container"
    value {
      s: ""
    }
  }
  attr {
    key: "dtype"
    value {
      type: DT_FLOAT
    }
  }
  attr {
    key: "shape"
    value {
      shape {
        dim {
          size: 3
        }
        dim {
          size: 3
        }
        dim {
          size: 16
        }
        dim {
          size: 1
        }
      }
    }
  }
  attr {
    key: "shared_name"
    value {
      s: "MobilenetV2/expanded_conv/depthwise/depthwise_weights"
    }
  }
}
node {
  name: "MobilenetV2/expanded_conv/depthwise/depthwise_weights/IsInitialized/VarIsInitializedOp"
  op: "VarIsInitializedOp"
  input: "MobilenetV2/expanded_conv/depthwise/depthwise_weights"
}
node {
  name: "MobilenetV2/expanded_conv/depthwise/depthwise_weights/Assign"
  op: "AssignVariableOp"
  input: "MobilenetV2/expanded_conv/depthwise/depthwise_weights"
  input: "MobilenetV2/expanded_conv/depthwise/depthwise_weights/Initializer/truncated_normal"
  attr {
    key: "dtype"
    value {
      type: DT_FLOAT
    }
  }
  attr {
    key: "validate_shape"
    value {
      b: false
    }
  }
}
node {
  name: "MobilenetV2/expanded_conv/depthwise/depthwise_weights/Read/ReadVariableOp"
  op: "ReadVariableOp"
  input: "MobilenetV2/expanded_conv/depthwise/depthwise_weights"
  attr {
    key: "dtype"
    value {
      type: DT_FLOAT
    }
  }
}
node {
  name: "MobilenetV2/expanded_conv/depthwise/depthwise/ReadVariableOp"
  op: "ReadVariableOp"
  input: "MobilenetV2/expanded_conv/depthwise/depthwise_weights"
  attr {
    key: "dtype"
    value {
      type: DT_FLOAT
    }
  }
}
node {
  name: "MobilenetV2/expanded_conv/depthwise/depthwise/Shape"
  op: "Const"
  attr {
    key: "dtype"
    value {
      type: DT_INT32
    }
  }
  attr {
    key: "value"
    value {
      tensor {
        dtype: DT_INT32
        tensor_shape {
          dim {
            size: 4
          }
        }
        tensor_content: "\003\000\000\000\003\000\000\000\020\000\000\000\001\000\000\000"
      }
    }
  }
}
node {
  name: "MobilenetV2/expanded_conv/depthwise/depthwise/dilation_rate"
  op: "Const"
  attr {
    key: "dtype"
    value {
      type: DT_INT32
    }
  }
  attr {
    key: "value"
    value {
      tensor {
        dtype: DT_INT32
        tensor_shape {
          dim {
            size: 2
          }
        }
        tensor_content: "\001\000\000\000\001\000\000\000"
      }
    }
  }
}
node {
  name: "MobilenetV2/expanded_conv/depthwise/depthwise"
  op: "DepthwiseConv2dNative"
  input: "MobilenetV2/expanded_conv/input"
  input: "MobilenetV2/expanded_conv/depthwise/depthwise/ReadVariableOp"
  attr {
    key: "T"
    value {
      type: DT_FLOAT
    }
  }
  attr {
    key: "data_format"
    value {
      s: "NHWC"
    }
  }
  attr {
    key: "dilations"
    value {
      list {
        i: 1
        i: 1
        i: 1
        i: 1
      }
    }
  }
  attr {
    key: "explicit_paddings"
    value {
      list {
      }
    }
  }
  attr {
    key: "padding"
    value {
      s: "SAME"
    }
  }
  attr {
    key: "strides"
    value {
      list {
        i: 1
        i: 1
        i: 1
        i: 1
      }
    }
  }
}
node {
  name: "MobilenetV2/expanded_conv/depthwise/BatchNorm/gamma/Initializer/ones"
  op: "Const"
  attr {
    key: "_class"
    value {
      list {
        s: "loc:@MobilenetV2/expanded_conv/depthwise/BatchNorm/gamma"
      }
    }
  }
  attr {
    key: "dtype"
    value {
      type: DT_FLOAT
    }
  }
  attr {
    key: "value"
    value {
      tensor {
        dtype: DT_FLOAT
        tensor_shape {
          dim {
            size: 16
          }
        }
        float_val: 1.0
      }
    }
  }
}
node {
  name: "MobilenetV2/expanded_conv/depthwise/BatchNorm/gamma"
  op: "VarHandleOp"
  attr {
    key: "_class"
    value {
      list {
        s: "loc:@MobilenetV2/expanded_conv/depthwise/BatchNorm/gamma"
      }
    }
  }
  attr {
    key: "allowed_devices"
    value {
      list {
      }
    }
  }
  attr {
    key: "container"
    value {
      s: ""
    }
  }
  attr {
    key: "dtype"
    value {
      type: DT_FLOAT
    }
  }
  attr {
    key: "shape"
    value {
      shape {
        dim {
          size: 16
        }
      }
    }
  }
  attr {
    key: "shared_name"
    value {
      s: "MobilenetV2/expanded_conv/depthwise/BatchNorm/gamma"
    }
  }
}
node {
  name: "MobilenetV2/expanded_conv/depthwise/BatchNorm/gamma/IsInitialized/VarIsInitializedOp"
  op: "VarIsInitializedOp"
  input: "MobilenetV2/expanded_conv/depthwise/BatchNorm/gamma"
}
node {
  name: "MobilenetV2/expanded_conv/depthwise/BatchNorm/gamma/Assign"
  op: "AssignVariableOp"
  input: "MobilenetV2/expanded_conv/depthwise/BatchNorm/gamma"
  input: "MobilenetV2/expanded_conv/depthwise/BatchNorm/gamma/Initializer/ones"
  attr {
    key: "dtype"
    value {
      type: DT_FLOAT
    }
  }
  attr {
    key: "validate_shape"
    value {
      b: false
    }
  }
}
node {
  name: "MobilenetV2/expanded_conv/depthwise/BatchNorm/gamma/Read/ReadVariableOp"
  op: "ReadVariableOp"
  input: "MobilenetV2/expanded_conv/depthwise/BatchNorm/gamma"
  attr {
    key: "dtype"
    value {
      type: DT_FLOAT
    }
  }
}
node {
  name: "MobilenetV2/expanded_conv/depthwise/BatchNorm/beta/Initializer/zeros"
  op: "Const"
  attr {
    key: "_class"
    value {
      list {
        s: "loc:@MobilenetV2/expanded_conv/depthwise/BatchNorm/beta"
      }
    }
  }
  attr {
    key: "dtype"
    value {
      type: DT_FLOAT
    }
  }
  attr {
    key: "value"
    value {
      tensor {
        dtype: DT_FLOAT
        tensor_shape {
          dim {
            size: 16
          }
        }
        float_val: 0.0
      }
    }
  }
}
node {
  name: "MobilenetV2/expanded_conv/depthwise/BatchNorm/beta"
  op: "VarHandleOp"
  attr {
    key: "_class"
    value {
      list {
        s: "loc:@MobilenetV2/expanded_conv/depthwise/BatchNorm/beta"
      }
    }
  }
  attr {
    key: "allowed_devices"
    value {
      list {
      }
    }
  }
  attr {
    key: "container"
    value {
      s: ""
    }
  }
  attr {
    key: "dtype"
    value {
      type: DT_FLOAT
    }
  }
  attr {
    key: "shape"
    value {
      shape {
        dim {
          size: 16
        }
      }
    }
  }
  attr {
    key: "shared_name"
    value {
      s: "MobilenetV2/expanded_conv/depthwise/BatchNorm/beta"
    }
  }
}
node {
  name: "MobilenetV2/expanded_conv/depthwise/BatchNorm/beta/IsInitialized/VarIsInitializedOp"
  op: "VarIsInitializedOp"
  input: "MobilenetV2/expanded_conv/depthwise/BatchNorm/beta"
}
node {
  name: "MobilenetV2/expanded_conv/depthwise/BatchNorm/beta/Assign"
  op: "AssignVariableOp"
  input: "MobilenetV2/expanded_conv/depthwise/BatchNorm/beta"
  input: "MobilenetV2/expanded_conv/depthwise/BatchNorm/beta/Initializer/zeros"
  attr {
    key: "dtype"
    value {
      type: DT_FLOAT
    }
  }
  attr {
    key: "validate_shape"
    value {
      b: false
    }
  }
}
node {
  name: "MobilenetV2/expanded_conv/depthwise/BatchNorm/beta/Read/ReadVariableOp"
  op: "ReadVariableOp"
  input: "MobilenetV2/expanded_conv/depthwise/BatchNorm/beta"
  attr {
    key: "dtype"
    value {
      type: DT_FLOAT
    }
  }
}
node {
  name: "MobilenetV2/expanded_conv/depthwise/BatchNorm/moving_mean/Initializer/zeros"
  op: "Const"
  attr {
    key: "_class"
    value {
      list {
        s: "loc:@MobilenetV2/expanded_conv/depthwise/BatchNorm/moving_mean"
      }
    }
  }
  attr {
    key: "dtype"
    value {
      type: DT_FLOAT
    }
  }
  attr {
    key: "value"
    value {
      tensor {
        dtype: DT_FLOAT
        tensor_shape {
          dim {
            size: 16
          }
        }
        float_val: 0.0
      }
    }
  }
}
node {
  name: "MobilenetV2/expanded_conv/depthwise/BatchNorm/moving_mean"
  op: "VarHandleOp"
  attr {
    key: "_class"
    value {
      list {
        s: "loc:@MobilenetV2/expanded_conv/depthwise/BatchNorm/moving_mean"
      }
    }
  }
  attr {
    key: "allowed_devices"
    value {
      list {
      }
    }
  }
  attr {
    key: "container"
    value {
      s: ""
    }
  }
  attr {
    key: "dtype"
    value {
      type: DT_FLOAT
    }
  }
  attr {
    key: "shape"
    value {
      shape {
        dim {
          size: 16
        }
      }
    }
  }
  attr {
    key: "shared_name"
    value {
      s: "MobilenetV2/expanded_conv/depthwise/BatchNorm/moving_mean"
    }
  }
}
node {
  name: "MobilenetV2/expanded_conv/depthwise/BatchNorm/moving_mean/IsInitialized/VarIsInitializedOp"
  op: "VarIsInitializedOp"
  input: "MobilenetV2/expanded_conv/depthwise/BatchNorm/moving_mean"
}
node {
  name: "MobilenetV2/expanded_conv/depthwise/BatchNorm/moving_mean/Assign"
  op: "AssignVariableOp"
  input: "MobilenetV2/expanded_conv/depthwise/BatchNorm/moving_mean"
  input: "MobilenetV2/expanded_conv/depthwise/BatchNorm/moving_mean/Initializer/zeros"
  attr {
    key: "dtype"
    value {
      type: DT_FLOAT
    }
  }
  attr {
    key: "validate_shape"
    value {
      b: false
    }
  }
}
node {
  name: "MobilenetV2/expanded_conv/depthwise/BatchNorm/moving_mean/Read/ReadVariableOp"
  op: "ReadVariableOp"
  input: "MobilenetV2/expanded_conv/depthwise/BatchNorm/moving_mean"
  attr {
    key: "dtype"
    value {
      type: DT_FLOAT
    }
  }
}
node {
  name: "MobilenetV2/expanded_conv/depthwise/BatchNorm/moving_variance/Initializer/ones"
  op: "Const"
  attr {
    key: "_class"
    value {
      list {
        s: "loc:@MobilenetV2/expanded_conv/depthwise/BatchNorm/moving_variance"
      }
    }
  }
  attr {
    key: "dtype"
    value {
      type: DT_FLOAT
    }
  }
  attr {
    key: "value"
    value {
      tensor {
        dtype: DT_FLOAT
        tensor_shape {
          dim {
            size: 16
          }
        }
        float_val: 1.0
      }
    }
  }
}
node {
  name: "MobilenetV2/expanded_conv/depthwise/BatchNorm/moving_variance"
  op: "VarHandleOp"
  attr {
    key: "_class"
    value {
      list {
        s: "loc:@MobilenetV2/expanded_conv/depthwise/BatchNorm/moving_variance"
      }
    }
  }
  attr {
    key: "allowed_devices"
    value {
      list {
      }
    }
  }
  attr {
    key: "container"
    value {
      s: ""
    }
  }
  attr {
    key: "dtype"
    value {
      type: DT_FLOAT
    }
  }
  attr {
    key: "shape"
    value {
      shape {
        dim {
          size: 16
        }
      }
    }
  }
  attr {
    key: "shared_name"
    value {
      s: "MobilenetV2/expanded_conv/depthwise/BatchNorm/moving_variance"
    }
  }
}
node {
  name: "MobilenetV2/expanded_conv/depthwise/BatchNorm/moving_variance/IsInitialized/VarIsInitializedOp"
  op: "VarIsInitializedOp"
  input: "MobilenetV2/expanded_conv/depthwise/BatchNorm/moving_variance"
}
node {
  name: "MobilenetV2/expanded_conv/depthwise/BatchNorm/moving_variance/Assign"
  op: "AssignVariableOp"
  input: "MobilenetV2/expanded_conv/depthwise/BatchNorm/moving_variance"
  input: "MobilenetV2/expanded_conv/depthwise/BatchNorm/moving_variance/Initializer/ones"
  attr {
    key: "dtype"
    value {
      type: DT_FLOAT
    }
  }
  attr {
    key: "validate_shape"
    value {
      b: false
    }
  }
}
node {
  name: "MobilenetV2/expanded_conv/depthwise/BatchNorm/moving_variance/Read/ReadVariableOp"
  op: "ReadVariableOp"
  input: "MobilenetV2/expanded_conv/depthwise/BatchNorm/moving_variance"
  attr {
    key: "dtype"
    value {
      type: DT_FLOAT
    }
  }
}
node {
  name: "MobilenetV2/expanded_conv/depthwise/BatchNorm/ReadVariableOp"
  op: "ReadVariableOp"
  input: "MobilenetV2/expanded_conv/depthwise/BatchNorm/gamma"
  attr {
    key: "dtype"
    value {
      type: DT_FLOAT
    }
  }
}
node {
  name: "MobilenetV2/expanded_conv/depthwise/BatchNorm/ReadVariableOp_1"
  op: "ReadVariableOp"
  input: "MobilenetV2/expanded_conv/depthwise/BatchNorm/beta"
  attr {
    key: "dtype"
    value {
      type: DT_FLOAT
    }
  }
}
node {
  name: "MobilenetV2/expanded_conv/depthwise/BatchNorm/FusedBatchNormV3/ReadVariableOp"
  op: "ReadVariableOp"
  input: "MobilenetV2/expanded_conv/depthwise/BatchNorm/moving_mean"
  attr {
    key: "dtype"
    value {
      type: DT_FLOAT
    }
  }
}
node {
  name: "MobilenetV2/expanded_conv/depthwise/BatchNorm/FusedBatchNormV3/ReadVariableOp_1"
  op: "ReadVariableOp"
  input: "MobilenetV2/expanded_conv/depthwise/BatchNorm/moving_variance"
  attr {
    key: "dtype"
    value {
      type: DT_FLOAT
    }
  }
}
node {
  name: "MobilenetV2/expanded_conv/depthwise/BatchNorm/FusedBatchNormV3"
  op: "FusedBatchNormV3"
  input: "MobilenetV2/expanded_conv/depthwise/depthwise"
  input: "MobilenetV2/expanded_conv/depthwise/BatchNorm/ReadVariableOp"
  input: "MobilenetV2/expanded_conv/depthwise/BatchNorm/ReadVariableOp_1"
  input: "MobilenetV2/expanded_conv/depthwise/BatchNorm/FusedBatchNormV3/ReadVariableOp"
  input: "MobilenetV2/expanded_conv/depthwise/BatchNorm/FusedBatchNormV3/ReadVariableOp_1"
  attr {
    key: "T"
    value {
      type: DT_FLOAT
    }
  }
  attr {
    key: "U"
    value {
      type: DT_FLOAT
    }
  }
  attr {
    key: "data_format"
    value {
      s: "NHWC"
    }
  }
  attr {
    key: "epsilon"
    value {
      f: 0.0010000000474974513
    }
  }
  attr {
    key: "exponential_avg_factor"
    value {
      f: 1.0
    }
  }
  attr {
    key: "is_training"
    value {
      b: true
    }
  }
}
node {
  name: "MobilenetV2/expanded_conv/depthwise/BatchNorm/Const"
  op: "Const"
  attr {
    key: "dtype"
    value {
      type: DT_FLOAT
    }
  }
  attr {
    key: "value"
    value {
      tensor {
        dtype: DT_FLOAT
        tensor_shape {
        }
        float_val: 0.996999979019165
      }
    }
  }
}
node {
  name: "MobilenetV2/expanded_conv/depthwise/BatchNorm/AssignMovingAvg/sub/x"
  op: "Const"
  attr {
    key: "_class"
    value {
      list {
        s: "loc:@MobilenetV2/expanded_conv/depthwise/BatchNorm/moving_mean"
      }
    }
  }
  attr {
    key: "dtype"
    value {
      type: DT_FLOAT
    }
  }
  attr {
    key: "value"
    value {
      tensor {
        dtype: DT_FLOAT
        tensor_shape {
        }
        float_val: 1.0
      }
    }
  }
}
node {
  name: "MobilenetV2/expanded_conv/depthwise/BatchNorm/AssignMovingAvg/sub"
  op: "Sub"
  input: "MobilenetV2/expanded_conv/depthwise/BatchNorm/AssignMovingAvg/sub/x"
  input: "MobilenetV2/expanded_conv/depthwise/BatchNorm/Const"
  attr {
    key: "T"
    value {
      type: DT_FLOAT
    }
  }
  attr {
    key: "_class"
    value {
      list {
        s: "loc:@MobilenetV2/expanded_conv/depthwise/BatchNorm/moving_mean"
      }
    }
  }
}
node {
  name: "MobilenetV2/expanded_conv/depthwise/BatchNorm/AssignMovingAvg/ReadVariableOp"
  op: "ReadVariableOp"
  input: "MobilenetV2/expanded_conv/depthwise/BatchNorm/moving_mean"
  attr {
    key: "dtype"
    value {
      type: DT_FLOAT
    }
  }
}
node {
  name: "MobilenetV2/expanded_conv/depthwise/BatchNorm/AssignMovingAvg/sub_1"
  op: "Sub"
  input: "MobilenetV2/expanded_conv/depthwise/BatchNorm/AssignMovingAvg/ReadVariableOp"
  input: "MobilenetV2/expanded_conv/depthwise/BatchNorm/FusedBatchNormV3:1"
  attr {
    key: "T"
    value {
      type: DT_FLOAT
    }
  }
  attr {
    key: "_class"
    value {
      list {
        s: "loc:@MobilenetV2/expanded_conv/depthwise/BatchNorm/moving_mean"
      }
    }
  }
}
node {
  name: "MobilenetV2/expanded_conv/depthwise/BatchNorm/AssignMovingAvg/mul"
  op: "Mul"
  input: "MobilenetV2/expanded_conv/depthwise/BatchNorm/AssignMovingAvg/sub_1"
  input: "MobilenetV2/expanded_conv/depthwise/BatchNorm/AssignMovingAvg/sub"
  attr {
    key: "T"
    value {
      type: DT_FLOAT
    }
  }
  attr {
    key: "_class"
    value {
      list {
        s: "loc:@MobilenetV2/expanded_conv/depthwise/BatchNorm/moving_mean"
      }
    }
  }
}
node {
  name: "MobilenetV2/expanded_conv/depthwise/BatchNorm/AssignMovingAvg/AssignSubVariableOp"
  op: "AssignSubVariableOp"
  input: "MobilenetV2/expanded_conv/depthwise/BatchNorm/moving_mean"
  input: "MobilenetV2/expanded_conv/depthwise/BatchNorm/AssignMovingAvg/mul"
  attr {
    key: "_class"
    value {
      list {
        s: "loc:@MobilenetV2/expanded_conv/depthwise/BatchNorm/moving_mean"
      }
    }
  }
  attr {
    key: "dtype"
    value {
      type: DT_FLOAT
    }
  }
}
node {
  name: "MobilenetV2/expanded_conv/depthwise/BatchNorm/AssignMovingAvg/ReadVariableOp_1"
  op: "ReadVariableOp"
  input: "MobilenetV2/expanded_conv/depthwise/BatchNorm/moving_mean"
  input: "^MobilenetV2/expanded_conv/depthwise/BatchNorm/AssignMovingAvg/AssignSubVariableOp"
  attr {
    key: "_class"
    value {
      list {
        s: "loc:@MobilenetV2/expanded_conv/depthwise/BatchNorm/moving_mean"
      }
    }
  }
  attr {
    key: "dtype"
    value {
      type: DT_FLOAT
    }
  }
}
node {
  name: "MobilenetV2/expanded_conv/depthwise/BatchNorm/AssignMovingAvg_1/sub/x"
  op: "Const"
  attr {
    key: "_class"
    value {
      list {
        s: "loc:@MobilenetV2/expanded_conv/depthwise/BatchNorm/moving_variance"
      }
    }
  }
  attr {
    key: "dtype"
    value {
      type: DT_FLOAT
    }
  }
  attr {
    key: "value"
    value {
      tensor {
        dtype: DT_FLOAT
        tensor_shape {
        }
        float_val: 1.0
      }
    }
  }
}
node {
  name: "MobilenetV2/expanded_conv/depthwise/BatchNorm/AssignMovingAvg_1/sub"
  op: "Sub"
  input: "MobilenetV2/expanded_conv/depthwise/BatchNorm/AssignMovingAvg_1/sub/x"
  input: "MobilenetV2/expanded_conv/depthwise/BatchNorm/Const"
  attr {
    key: "T"
    value {
      type: DT_FLOAT
    }
  }
  attr {
    key: "_class"
    value {
      list {
        s: "loc:@MobilenetV2/expanded_conv/depthwise/BatchNorm/moving_variance"
      }
    }
  }
}
node {
  name: "MobilenetV2/expanded_conv/depthwise/BatchNorm/AssignMovingAvg_1/ReadVariableOp"
  op: "ReadVariableOp"
  input: "MobilenetV2/expanded_conv/depthwise/BatchNorm/moving_variance"
  attr {
    key: "dtype"
    value {
      type: DT_FLOAT
    }
  }
}
node {
  name: "MobilenetV2/expanded_conv/depthwise/BatchNorm/AssignMovingAvg_1/sub_1"
  op: "Sub"
  input: "MobilenetV2/expanded_conv/depthwise/BatchNorm/AssignMovingAvg_1/ReadVariableOp"
  input: "MobilenetV2/expanded_conv/depthwise/BatchNorm/FusedBatchNormV3:2"
  attr {
    key: "T"
    value {
      type: DT_FLOAT
    }
  }
  attr {
    key: "_class"
    value {
      list {
        s: "loc:@MobilenetV2/expanded_conv/depthwise/BatchNorm/moving_variance"
      }
    }
  }
}
node {
  name: "MobilenetV2/expanded_conv/depthwise/BatchNorm/AssignMovingAvg_1/mul"
  op: "Mul"
  input: "MobilenetV2/expanded_conv/depthwise/BatchNorm/AssignMovingAvg_1/sub_1"
  input: "MobilenetV2/expanded_conv/depthwise/BatchNorm/AssignMovingAvg_1/sub"
  attr {
    key: "T"
    value {
      type: DT_FLOAT
    }
  }
  attr {
    key: "_class"
    value {
      list {
        s: "loc:@MobilenetV2/expanded_conv/depthwise/BatchNorm/moving_variance"
      }
    }
  }
}
node {
  name: "MobilenetV2/expanded_conv/depthwise/BatchNorm/AssignMovingAvg_1/AssignSubVariableOp"
  op: "AssignSubVariableOp"
  input: "MobilenetV2/expanded_conv/depthwise/BatchNorm/moving_variance"
  input: "MobilenetV2/expanded_conv/depthwise/BatchNorm/AssignMovingAvg_1/mul"
  attr {
    key: "_class"
    value {
      list {
        s: "loc:@MobilenetV2/expanded_conv/depthwise/BatchNorm/moving_variance"
      }
    }
  }
  attr {
    key: "dtype"
    value {
      type: DT_FLOAT
    }
  }
}
node {
  name: "MobilenetV2/expanded_conv/depthwise/BatchNorm/AssignMovingAvg_1/ReadVariableOp_1"
  op: "ReadVariableOp"
  input: "MobilenetV2/expanded_conv/depthwise/BatchNorm/moving_variance"
  input: "^MobilenetV2/expanded_conv/depthwise/BatchNorm/AssignMovingAvg_1/AssignSubVariableOp"
  attr {
    key: "_class"
    value {
      list {
        s: "loc:@MobilenetV2/expanded_conv/depthwise/BatchNorm/moving_variance"
      }
    }
  }
  attr {
    key: "dtype"
    value {
      type: DT_FLOAT
    }
  }
}
node {
  name: "MobilenetV2/expanded_conv/depthwise/Relu6"
  op: "Relu6"
  input: "MobilenetV2/expanded_conv/depthwise/BatchNorm/FusedBatchNormV3"
  attr {
    key: "T"
    value {
      type: DT_FLOAT
    }
  }
}
node {
  name: "MobilenetV2/expanded_conv/depthwise_output"
  op: "Identity"
  input: "MobilenetV2/expanded_conv/depthwise/Relu6"
  attr {
    key: "T"
    value {
      type: DT_FLOAT
    }
  }
}
node {
  name: "MobilenetV2/expanded_conv/project/weights/Initializer/truncated_normal/shape"
  op: "Const"
  attr {
    key: "_class"
    value {
      list {
        s: "loc:@MobilenetV2/expanded_conv/project/weights"
      }
    }
  }
  attr {
    key: "dtype"
    value {
      type: DT_INT32
    }
  }
  attr {
    key: "value"
    value {
      tensor {
        dtype: DT_INT32
        tensor_shape {
          dim {
            size: 4
          }
        }
        tensor_content: "\001\000\000\000\001\000\000\000\020\000\000\000\010\000\000\000"
      }
    }
  }
}
node {
  name: "MobilenetV2/expanded_conv/project/weights/Initializer/truncated_normal/mean"
  op: "Const"
  attr {
    key: "_class"
    value {
      list {
        s: "loc:@MobilenetV2/expanded_conv/project/weights"
      }
    }
  }
  attr {
    key: "dtype"
    value {
      type: DT_FLOAT
    }
  }
  attr {
    key: "value"
    value {
      tensor {
        dtype: DT_FLOAT
        tensor_shape {
        }
        float_val: 0.0
      }
    }
  }
}
node {
  name: "MobilenetV2/expanded_conv/project/weights/Initializer/truncated_normal/stddev"
  op: "Const"
  attr {
    key: "_class"
    value {
      list {
        s: "loc:@MobilenetV2/expanded_conv/project/weights"
      }
    }
  }
  attr {
    key: "dtype"
    value {
      type: DT_FLOAT
    }
  }
  attr {
    key: "value"
    value {
      tensor {
        dtype: DT_FLOAT
        tensor_shape {
        }
        float_val: 0.09000000357627869
      }
    }
  }
}
node {
  name: "MobilenetV2/expanded_conv/project/weights/Initializer/truncated_normal/TruncatedNormal"
  op: "TruncatedNormal"
  input: "MobilenetV2/expanded_conv/project/weights/Initializer/truncated_normal/shape"
  attr {
    key: "T"
    value {
      type: DT_INT32
    }
  }
  attr {
    key: "_class"
    value {
      list {
        s: "loc:@MobilenetV2/expanded_conv/project/weights"
      }
    }
  }
  attr {
    key: "dtype"
    value {
      type: DT_FLOAT
    }
  }
  attr {
    key: "seed"
    value {
      i: 0
    }
  }
  attr {
    key: "seed2"
    value {
      i: 0
    }
  }
}
node {
  name: "MobilenetV2/expanded_conv/project/weights/Initializer/truncated_normal/mul"
  op: "Mul"
  input: "MobilenetV2/expanded_conv/project/weights/Initializer/truncated_normal/TruncatedNormal"
  input: "MobilenetV2/expanded_conv/project/weights/Initializer/truncated_normal/stddev"
  attr {
    key: "T"
    value {
      type: DT_FLOAT
    }
  }
  attr {
    key: "_class"
    value {
      list {
        s: "loc:@MobilenetV2/expanded_conv/project/weights"
      }
    }
  }
}
node {
  name: "MobilenetV2/expanded_conv/project/weights/Initializer/truncated_normal"
  op: "AddV2"
  input: "MobilenetV2/expanded_conv/project/weights/Initializer/truncated_normal/mul"
  input: "MobilenetV2/expanded_conv/project/weights/Initializer/truncated_normal/mean"
  attr {
    key: "T"
    value {
      type: DT_FLOAT
    }
  }
  attr {
    key: "_class"
    value {
      list {
        s: "loc:@MobilenetV2/expanded_conv/project/weights"
      }
    }
  }
}
node {
  name: "MobilenetV2/expanded_conv/project/weights"
  op: "VarHandleOp"
  attr {
    key: "_class"
    value {
      list {
        s: "loc:@MobilenetV2/expanded_conv/project/weights"
      }
    }
  }
  attr {
    key: "allowed_devices"
    value {
      list {
      }
    }
  }
  attr {
    key: "container"
    value {
      s: ""
    }
  }
  attr {
    key: "dtype"
    value {
      type: DT_FLOAT
    }
  }
  attr {
    key: "shape"
    value {
      shape {
        dim {
          size: 1
        }
        dim {
          size: 1
        }
        dim {
          size: 16
        }
        dim {
          size: 8
        }
      }
    }
  }
  attr {
    key: "shared_name"
    value {
      s: "MobilenetV2/expanded_conv/project/weights"
    }
  }
}
node {
  name: "MobilenetV2/expanded_conv/project/weights/IsInitialized/VarIsInitializedOp"
  op: "VarIsInitializedOp"
  input: "MobilenetV2/expanded_conv/project/weights"
}
node {
  name: "MobilenetV2/expanded_conv/project/weights/Assign"
  op: "AssignVariableOp"
  input: "MobilenetV2/expanded_conv/project/weights"
  input: "MobilenetV2/expanded_conv/project/weights/Initializer/truncated_normal"
  attr {
    key: "dtype"
    value {
      type: DT_FLOAT
    }
  }
  attr {
    key: "validate_shape"
    value {
      b: false
    }
  }
}
node {
  name: "MobilenetV2/expanded_conv/project/weights/Read/ReadVariableOp"
  op: "ReadVariableOp"
  input: "MobilenetV2/expanded_conv/project/weights"
  attr {
    key: "dtype"
    value {
      type: DT_FLOAT
    }
  }
}
node {
  name: "MobilenetV2/expanded_conv/project/kernel/Regularizer/Square/ReadVariableOp"
  op: "ReadVariableOp"
  input: "MobilenetV2/expanded_conv/project/weights"
  attr {
    key: "dtype"
    value {
      type: DT_FLOAT
    }
  }
}
node {
  name: "MobilenetV2/expanded_conv/project/kernel/Regularizer/Square"
  op: "Square"
  input: "MobilenetV2/expanded_conv/project/kernel/Regularizer/Square/ReadVariableOp"
  attr {
    key: "T"
    value {
      type: DT_FLOAT
    }
  }
}
node {
  name: "MobilenetV2/expanded_conv/project/kernel/Regularizer/Const"
  op: "Const"
  attr {
    key: "dtype"
    value {
      type: DT_INT32
    }
  }
  attr {
    key: "value"
    value {
      tensor {
        dtype: DT_INT32
        tensor_shape {
          dim {
            size: 4
          }
        }
        tensor_content: "\000\000\000\000\001\000\000\000\002\000\000\000\003\000\000\000"
      }
    }
  }
}
node {
  name: "MobilenetV2/expanded_conv/project/kernel/Regularizer/Sum"
  op: "Sum"
  input: "MobilenetV2/expanded_conv/project/kernel/Regularizer/Square"
  input: "MobilenetV2/expanded_conv/project/kernel/Regularizer/Const"
  attr {
    key: "T"
    value {
      type: DT_FLOAT
    }
  }
  attr {
    key: "Tidx"
    value {
      type: DT_INT32
    }
  }
  attr {
    key: "keep_dims"
    value {
      b: false
    }
  }
}
node {
  name: "MobilenetV2/expanded_conv/project/kernel/Regularizer/mul/x"
  op: "Const"
  attr {
    key: "dtype"
    value {
      type: DT_FLOAT
    }
  }
  attr {
    key: "value"
    value {
      tensor {
        dtype: DT_FLOAT
        tensor_shape {
        }
        float_val: 1.9999999494757503e-05
      }
    }
  }
}
node {
  name: "MobilenetV2/expanded_conv/project/kernel/Regularizer/mul"
  op: "Mul"
  input: "MobilenetV2/expanded_conv/project/kernel/Regularizer/mul/x"
  input: "MobilenetV2/expanded_conv/project/kernel/Regularizer/Sum"
  attr {
    key: "T"
    value {
      type: DT_FLOAT
    }
  }
}
node {
  name: "MobilenetV2/expanded_conv/project/Conv2D/ReadVariableOp"
  op: "ReadVariableOp"
  input: "MobilenetV2/expanded_conv/project/weights"
  attr {
    key: "dtype"
    value {
      type: DT_FLOAT
    }
  }
}
node {
  name: "MobilenetV2/expanded_conv/project/Conv2D"
  op: "Conv2D"
  input: "MobilenetV2/expanded_conv/depthwise_output"
  input: "MobilenetV2/expanded_conv/project/Conv2D/ReadVariableOp"
  attr {
    key: "T"
    value {
      type: DT_FLOAT
    }
  }
  attr {
    key: "data_format"
    value {
      s: "NHWC"
    }
  }
  attr {
    key: "dilations"
    value {
      list {
        i: 1
        i: 1
        i: 1
        i: 1
      }
    }
  }
  attr {
    key: "explicit_paddings"
    value {
      list {
      }
    }
  }
  attr {
    key: "padding"
    value {
      s: "SAME"
    }
  }
  attr {
    key: "strides"
    value {
      list {
        i: 1
        i: 1
        i: 1
        i: 1
      }
    }
  }
  attr {
    key: "use_cudnn_on_gpu"
    value {
      b: true
    }
  }
}
node {
  name: "MobilenetV2/expanded_conv/project/BatchNorm/gamma/Initializer/ones"
  op: "Const"
  attr {
    key: "_class"
    value {
      list {
        s: "loc:@MobilenetV2/expanded_conv/project/BatchNorm/gamma"
      }
    }
  }
  attr {
    key: "dtype"
    value {
      type: DT_FLOAT
    }
  }
  attr {
    key: "value"
    value {
      tensor {
        dtype: DT_FLOAT
        tensor_shape {
          dim {
            size: 8
          }
        }
        float_val: 1.0
      }
    }
  }
}
node {
  name: "MobilenetV2/expanded_conv/project/BatchNorm/gamma"
  op: "VarHandleOp"
  attr {
    key: "_class"
    value {
      list {
        s: "loc:@MobilenetV2/expanded_conv/project/BatchNorm/gamma"
      }
    }
  }
  attr {
    key: "allowed_devices"
    value {
      list {
      }
    }
  }
  attr {
    key: "container"
    value {
      s: ""
    }
  }
  attr {
    key: "dtype"
    value {
      type: DT_FLOAT
    }
  }
  attr {
    key: "shape"
    value {
      shape {
        dim {
          size: 8
        }
      }
    }
  }
  attr {
    key: "shared_name"
    value {
      s: "MobilenetV2/expanded_conv/project/BatchNorm/gamma"
    }
  }
}
node {
  name: "MobilenetV2/expanded_conv/project/BatchNorm/gamma/IsInitialized/VarIsInitializedOp"
  op: "VarIsInitializedOp"
  input: "MobilenetV2/expanded_conv/project/BatchNorm/gamma"
}
node {
  name: "MobilenetV2/expanded_conv/project/BatchNorm/gamma/Assign"
  op: "AssignVariableOp"
  input: "MobilenetV2/expanded_conv/project/BatchNorm/gamma"
  input: "MobilenetV2/expanded_conv/project/BatchNorm/gamma/Initializer/ones"
  attr {
    key: "dtype"
    value {
      type: DT_FLOAT
    }
  }
  attr {
    key: "validate_shape"
    value {
      b: false
    }
  }
}
node {
  name: "MobilenetV2/expanded_conv/project/BatchNorm/gamma/Read/ReadVariableOp"
  op: "ReadVariableOp"
  input: "MobilenetV2/expanded_conv/project/BatchNorm/gamma"
  attr {
    key: "dtype"
    value {
      type: DT_FLOAT
    }
  }
}
node {
  name: "MobilenetV2/expanded_conv/project/BatchNorm/beta/Initializer/zeros"
  op: "Const"
  attr {
    key: "_class"
    value {
      list {
        s: "loc:@MobilenetV2/expanded_conv/project/BatchNorm/beta"
      }
    }
  }
  attr {
    key: "dtype"
    value {
      type: DT_FLOAT
    }
  }
  attr {
    key: "value"
    value {
      tensor {
        dtype: DT_FLOAT
        tensor_shape {
          dim {
            size: 8
          }
        }
        float_val: 0.0
      }
    }
  }
}
node {
  name: "MobilenetV2/expanded_conv/project/BatchNorm/beta"
  op: "VarHandleOp"
  attr {
    key: "_class"
    value {
      list {
        s: "loc:@MobilenetV2/expanded_conv/project/BatchNorm/beta"
      }
    }
  }
  attr {
    key: "allowed_devices"
    value {
      list {
      }
    }
  }
  attr {
    key: "container"
    value {
      s: ""
    }
  }
  attr {
    key: "dtype"
    value {
      type: DT_FLOAT
    }
  }
  attr {
    key: "shape"
    value {
      shape {
        dim {
          size: 8
        }
      }
    }
  }
  attr {
    key: "shared_name"
    value {
      s: "MobilenetV2/expanded_conv/project/BatchNorm/beta"
    }
  }
}
node {
  name: "MobilenetV2/expanded_conv/project/BatchNorm/beta/IsInitialized/VarIsInitializedOp"
  op: "VarIsInitializedOp"
  input: "MobilenetV2/expanded_conv/project/BatchNorm/beta"
}
node {
  name: "MobilenetV2/expanded_conv/project/BatchNorm/beta/Assign"
  op: "AssignVariableOp"
  input: "MobilenetV2/expanded_conv/project/BatchNorm/beta"
  input: "MobilenetV2/expanded_conv/project/BatchNorm/beta/Initializer/zeros"
  attr {
    key: "dtype"
    value {
      type: DT_FLOAT
    }
  }
  attr {
    key: "validate_shape"
    value {
      b: false
    }
  }
}
node {
  name: "MobilenetV2/expanded_conv/project/BatchNorm/beta/Read/ReadVariableOp"
  op: "ReadVariableOp"
  input: "MobilenetV2/expanded_conv/project/BatchNorm/beta"
  attr {
    key: "dtype"
    value {
      type: DT_FLOAT
    }
  }
}
node {
  name: "MobilenetV2/expanded_conv/project/BatchNorm/moving_mean/Initializer/zeros"
  op: "Const"
  attr {
    key: "_class"
    value {
      list {
        s: "loc:@MobilenetV2/expanded_conv/project/BatchNorm/moving_mean"
      }
    }
  }
  attr {
    key: "dtype"
    value {
      type: DT_FLOAT
    }
  }
  attr {
    key: "value"
    value {
      tensor {
        dtype: DT_FLOAT
        tensor_shape {
          dim {
            size: 8
          }
        }
        float_val: 0.0
      }
    }
  }
}
node {
  name: "MobilenetV2/expanded_conv/project/BatchNorm/moving_mean"
  op: "VarHandleOp"
  attr {
    key: "_class"
    value {
      list {
        s: "loc:@MobilenetV2/expanded_conv/project/BatchNorm/moving_mean"
      }
    }
  }
  attr {
    key: "allowed_devices"
    value {
      list {
      }
    }
  }
  attr {
    key: "container"
    value {
      s: ""
    }
  }
  attr {
    key: "dtype"
    value {
      type: DT_FLOAT
    }
  }
  attr {
    key: "shape"
    value {
      shape {
        dim {
          size: 8
        }
      }
    }
  }
  attr {
    key: "shared_name"
    value {
      s: "MobilenetV2/expanded_conv/project/BatchNorm/moving_mean"
    }
  }
}
node {
  name: "MobilenetV2/expanded_conv/project/BatchNorm/moving_mean/IsInitialized/VarIsInitializedOp"
  op: "VarIsInitializedOp"
  input: "MobilenetV2/expanded_conv/project/BatchNorm/moving_mean"
}
node {
  name: "MobilenetV2/expanded_conv/project/BatchNorm/moving_mean/Assign"
  op: "AssignVariableOp"
  input: "MobilenetV2/expanded_conv/project/BatchNorm/moving_mean"
  input: "MobilenetV2/expanded_conv/project/BatchNorm/moving_mean/Initializer/zeros"
  attr {
    key: "dtype"
    value {
      type: DT_FLOAT
    }
  }
  attr {
    key: "validate_shape"
    value {
      b: false
    }
  }
}
node {
  name: "MobilenetV2/expanded_conv/project/BatchNorm/moving_mean/Read/ReadVariableOp"
  op: "ReadVariableOp"
  input: "MobilenetV2/expanded_conv/project/BatchNorm/moving_mean"
  attr {
    key: "dtype"
    value {
      type: DT_FLOAT
    }
  }
}
node {
  name: "MobilenetV2/expanded_conv/project/BatchNorm/moving_variance/Initializer/ones"
  op: "Const"
  attr {
    key: "_class"
    value {
      list {
        s: "loc:@MobilenetV2/expanded_conv/project/BatchNorm/moving_variance"
      }
    }
  }
  attr {
    key: "dtype"
    value {
      type: DT_FLOAT
    }
  }
  attr {
    key: "value"
    value {
      tensor {
        dtype: DT_FLOAT
        tensor_shape {
          dim {
            size: 8
          }
        }
        float_val: 1.0
      }
    }
  }
}
node {
  name: "MobilenetV2/expanded_conv/project/BatchNorm/moving_variance"
  op: "VarHandleOp"
  attr {
    key: "_class"
    value {
      list {
        s: "loc:@MobilenetV2/expanded_conv/project/BatchNorm/moving_variance"
      }
    }
  }
  attr {
    key: "allowed_devices"
    value {
      list {
      }
    }
  }
  attr {
    key: "container"
    value {
      s: ""
    }
  }
  attr {
    key: "dtype"
    value {
      type: DT_FLOAT
    }
  }
  attr {
    key: "shape"
    value {
      shape {
        dim {
          size: 8
        }
      }
    }
  }
  attr {
    key: "shared_name"
    value {
      s: "MobilenetV2/expanded_conv/project/BatchNorm/moving_variance"
    }
  }
}
node {
  name: "MobilenetV2/expanded_conv/project/BatchNorm/moving_variance/IsInitialized/VarIsInitializedOp"
  op: "VarIsInitializedOp"
  input: "MobilenetV2/expanded_conv/project/BatchNorm/moving_variance"
}
node {
  name: "MobilenetV2/expanded_conv/project/BatchNorm/moving_variance/Assign"
  op: "AssignVariableOp"
  input: "MobilenetV2/expanded_conv/project/BatchNorm/moving_variance"
  input: "MobilenetV2/expanded_conv/project/BatchNorm/moving_variance/Initializer/ones"
  attr {
    key: "dtype"
    value {
      type: DT_FLOAT
    }
  }
  attr {
    key: "validate_shape"
    value {
      b: false
    }
  }
}
node {
  name: "MobilenetV2/expanded_conv/project/BatchNorm/moving_variance/Read/ReadVariableOp"
  op: "ReadVariableOp"
  input: "MobilenetV2/expanded_conv/project/BatchNorm/moving_variance"
  attr {
    key: "dtype"
    value {
      type: DT_FLOAT
    }
  }
}
node {
  name: "MobilenetV2/expanded_conv/project/BatchNorm/ReadVariableOp"
  op: "ReadVariableOp"
  input: "MobilenetV2/expanded_conv/project/BatchNorm/gamma"
  attr {
    key: "dtype"
    value {
      type: DT_FLOAT
    }
  }
}
node {
  name: "MobilenetV2/expanded_conv/project/BatchNorm/ReadVariableOp_1"
  op: "ReadVariableOp"
  input: "MobilenetV2/expanded_conv/project/BatchNorm/beta"
  attr {
    key: "dtype"
    value {
      type: DT_FLOAT
    }
  }
}
node {
  name: "MobilenetV2/expanded_conv/project/BatchNorm/FusedBatchNormV3/ReadVariableOp"
  op: "ReadVariableOp"
  input: "MobilenetV2/expanded_conv/project/BatchNorm/moving_mean"
  attr {
    key: "dtype"
    value {
      type: DT_FLOAT
    }
  }
}
node {
  name: "MobilenetV2/expanded_conv/project/BatchNorm/FusedBatchNormV3/ReadVariableOp_1"
  op: "ReadVariableOp"
  input: "MobilenetV2/expanded_conv/project/BatchNorm/moving_variance"
  attr {
    key: "dtype"
    value {
      type: DT_FLOAT
    }
  }
}
node {
  name: "MobilenetV2/expanded_conv/project/BatchNorm/FusedBatchNormV3"
  op: "FusedBatchNormV3"
  input: "MobilenetV2/expanded_conv/project/Conv2D"
  input: "MobilenetV2/expanded_conv/project/BatchNorm/ReadVariableOp"
  input: "MobilenetV2/expanded_conv/project/BatchNorm/ReadVariableOp_1"
  input: "MobilenetV2/expanded_conv/project/BatchNorm/FusedBatchNormV3/ReadVariableOp"
  input: "MobilenetV2/expanded_conv/project/BatchNorm/FusedBatchNormV3/ReadVariableOp_1"
  attr {
    key: "T"
    value {
      type: DT_FLOAT
    }
  }
  attr {
    key: "U"
    value {
      type: DT_FLOAT
    }
  }
  attr {
    key: "data_format"
    value {
      s: "NHWC"
    }
  }
  attr {
    key: "epsilon"
    value {
      f: 0.0010000000474974513
    }
  }
  attr {
    key: "exponential_avg_factor"
    value {
      f: 1.0
    }
  }
  attr {
    key: "is_training"
    value {
      b: true
    }
  }
}
node {
  name: "MobilenetV2/expanded_conv/project/BatchNorm/Const"
  op: "Const"
  attr {
    key: "dtype"
    value {
      type: DT_FLOAT
    }
  }
  attr {
    key: "value"
    value {
      tensor {
        dtype: DT_FLOAT
        tensor_shape {
        }
        float_val: 0.996999979019165
      }
    }
  }
}
node {
  name: "MobilenetV2/expanded_conv/project/BatchNorm/AssignMovingAvg/sub/x"
  op: "Const"
  attr {
    key: "_class"
    value {
      list {
        s: "loc:@MobilenetV2/expanded_conv/project/BatchNorm/moving_mean"
      }
    }
  }
  attr {
    key: "dtype"
    value {
      type: DT_FLOAT
    }
  }
  attr {
    key: "value"
    value {
      tensor {
        dtype: DT_FLOAT
        tensor_shape {
        }
        float_val: 1.0
      }
    }
  }
}
node {
  name: "MobilenetV2/expanded_conv/project/BatchNorm/AssignMovingAvg/sub"
  op: "Sub"
  input: "MobilenetV2/expanded_conv/project/BatchNorm/AssignMovingAvg/sub/x"
  input: "MobilenetV2/expanded_conv/project/BatchNorm/Const"
  attr {
    key: "T"
    value {
      type: DT_FLOAT
    }
  }
  attr {
    key: "_class"
    value {
      list {
        s: "loc:@MobilenetV2/expanded_conv/project/BatchNorm/moving_mean"
      }
    }
  }
}
node {
  name: "MobilenetV2/expanded_conv/project/BatchNorm/AssignMovingAvg/ReadVariableOp"
  op: "ReadVariableOp"
  input: "MobilenetV2/expanded_conv/project/BatchNorm/moving_mean"
  attr {
    key: "dtype"
    value {
      type: DT_FLOAT
    }
  }
}
node {
  name: "MobilenetV2/expanded_conv/project/BatchNorm/AssignMovingAvg/sub_1"
  op: "Sub"
  input: "MobilenetV2/expanded_conv/project/BatchNorm/AssignMovingAvg/ReadVariableOp"
  input: "MobilenetV2/expanded_conv/project/BatchNorm/FusedBatchNormV3:1"
  attr {
    key: "T"
    value {
      type: DT_FLOAT
    }
  }
  attr {
    key: "_class"
    value {
      list {
        s: "loc:@MobilenetV2/expanded_conv/project/BatchNorm/moving_mean"
      }
    }
  }
}
node {
  name: "MobilenetV2/expanded_conv/project/BatchNorm/AssignMovingAvg/mul"
  op: "Mul"
  input: "MobilenetV2/expanded_conv/project/BatchNorm/AssignMovingAvg/sub_1"
  input: "MobilenetV2/expanded_conv/project/BatchNorm/AssignMovingAvg/sub"
  attr {
    key: "T"
    value {
      type: DT_FLOAT
    }
  }
  attr {
    key: "_class"
    value {
      list {
        s: "loc:@MobilenetV2/expanded_conv/project/BatchNorm/moving_mean"
      }
    }
  }
}
node {
  name: "MobilenetV2/expanded_conv/project/BatchNorm/AssignMovingAvg/AssignSubVariableOp"
  op: "AssignSubVariableOp"
  input: "MobilenetV2/expanded_conv/project/BatchNorm/moving_mean"
  input: "MobilenetV2/expanded_conv/project/BatchNorm/AssignMovingAvg/mul"
  attr {
    key: "_class"
    value {
      list {
        s: "loc:@MobilenetV2/expanded_conv/project/BatchNorm/moving_mean"
      }
    }
  }
  attr {
    key: "dtype"
    value {
      type: DT_FLOAT
    }
  }
}
node {
  name: "MobilenetV2/expanded_conv/project/BatchNorm/AssignMovingAvg/ReadVariableOp_1"
  op: "ReadVariableOp"
  input: "MobilenetV2/expanded_conv/project/BatchNorm/moving_mean"
  input: "^MobilenetV2/expanded_conv/project/BatchNorm/AssignMovingAvg/AssignSubVariableOp"
  attr {
    key: "_class"
    value {
      list {
        s: "loc:@MobilenetV2/expanded_conv/project/BatchNorm/moving_mean"
      }
    }
  }
  attr {
    key: "dtype"
    value {
      type: DT_FLOAT
    }
  }
}
node {
  name: "MobilenetV2/expanded_conv/project/BatchNorm/AssignMovingAvg_1/sub/x"
  op: "Const"
  attr {
    key: "_class"
    value {
      list {
        s: "loc:@MobilenetV2/expanded_conv/project/BatchNorm/moving_variance"
      }
    }
  }
  attr {
    key: "dtype"
    value {
      type: DT_FLOAT
    }
  }
  attr {
    key: "value"
    value {
      tensor {
        dtype: DT_FLOAT
        tensor_shape {
        }
        float_val: 1.0
      }
    }
  }
}
node {
  name: "MobilenetV2/expanded_conv/project/BatchNorm/AssignMovingAvg_1/sub"
  op: "Sub"
  input: "MobilenetV2/expanded_conv/project/BatchNorm/AssignMovingAvg_1/sub/x"
  input: "MobilenetV2/expanded_conv/project/BatchNorm/Const"
  attr {
    key: "T"
    value {
      type: DT_FLOAT
    }
  }
  attr {
    key: "_class"
    value {
      list {
        s: "loc:@MobilenetV2/expanded_conv/project/BatchNorm/moving_variance"
      }
    }
  }
}
node {
  name: "MobilenetV2/expanded_conv/project/BatchNorm/AssignMovingAvg_1/ReadVariableOp"
  op: "ReadVariableOp"
  input: "MobilenetV2/expanded_conv/project/BatchNorm/moving_variance"
  attr {
    key: "dtype"
    value {
      type: DT_FLOAT
    }
  }
}
node {
  name: "MobilenetV2/expanded_conv/project/BatchNorm/AssignMovingAvg_1/sub_1"
  op: "Sub"
  input: "MobilenetV2/expanded_conv/project/BatchNorm/AssignMovingAvg_1/ReadVariableOp"
  input: "MobilenetV2/expanded_conv/project/BatchNorm/FusedBatchNormV3:2"
  attr {
    key: "T"
    value {
      type: DT_FLOAT
    }
  }
  attr {
    key: "_class"
    value {
      list {
        s: "loc:@MobilenetV2/expanded_conv/project/BatchNorm/moving_variance"
      }
    }
  }
}
node {
  name: "MobilenetV2/expanded_conv/project/BatchNorm/AssignMovingAvg_1/mul"
  op: "Mul"
  input: "MobilenetV2/expanded_conv/project/BatchNorm/AssignMovingAvg_1/sub_1"
  input: "MobilenetV2/expanded_conv/project/BatchNorm/AssignMovingAvg_1/sub"
  attr {
    key: "T"
    value {
      type: DT_FLOAT
    }
  }
  attr {
    key: "_class"
    value {
      list {
        s: "loc:@MobilenetV2/expanded_conv/project/BatchNorm/moving_variance"
      }
    }
  }
}
node {
  name: "MobilenetV2/expanded_conv/project/BatchNorm/AssignMovingAvg_1/AssignSubVariableOp"
  op: "AssignSubVariableOp"
  input: "MobilenetV2/expanded_conv/project/BatchNorm/moving_variance"
  input: "MobilenetV2/expanded_conv/project/BatchNorm/AssignMovingAvg_1/mul"
  attr {
    key: "_class"
    value {
      list {
        s: "loc:@MobilenetV2/expanded_conv/project/BatchNorm/moving_variance"
      }
    }
  }
  attr {
    key: "dtype"
    value {
      type: DT_FLOAT
    }
  }
}
node {
  name: "MobilenetV2/expanded_conv/project/BatchNorm/AssignMovingAvg_1/ReadVariableOp_1"
  op: "ReadVariableOp"
  input: "MobilenetV2/expanded_conv/project/BatchNorm/moving_variance"
  input: "^MobilenetV2/expanded_conv/project/BatchNorm/AssignMovingAvg_1/AssignSubVariableOp"
  attr {
    key: "_class"
    value {
      list {
        s: "loc:@MobilenetV2/expanded_conv/project/BatchNorm/moving_variance"
      }
    }
  }
  attr {
    key: "dtype"
    value {
      type: DT_FLOAT
    }
  }
}
node {
  name: "MobilenetV2/expanded_conv/project/Identity"
  op: "Identity"
  input: "MobilenetV2/expanded_conv/project/BatchNorm/FusedBatchNormV3"
  attr {
    key: "T"
    value {
      type: DT_FLOAT
    }
  }
}
node {
  name: "MobilenetV2/expanded_conv/output"
  op: "Identity"
  input: "MobilenetV2/expanded_conv/project/Identity"
  attr {
    key: "T"
    value {
      type: DT_FLOAT
    }
  }
}
node {
  name: "MobilenetV2/expanded_conv_1/input"
  op: "Identity"
  input: "MobilenetV2/expanded_conv/output"
  attr {
    key: "T"
    value {
      type: DT_FLOAT
    }
  }
}
node {
  name: "MobilenetV2/expanded_conv_1/expand/weights/Initializer/truncated_normal/shape"
  op: "Const"
  attr {
    key: "_class"
    value {
      list {
        s: "loc:@MobilenetV2/expanded_conv_1/expand/weights"
      }
    }
  }
  attr {
    key: "dtype"
    value {
      type: DT_INT32
    }
  }
  attr {
    key: "value"
    value {
      tensor {
        dtype: DT_INT32
        tensor_shape {
          dim {
            size: 4
          }
        }
        tensor_content: "\001\000\000\000\001\000\000\000\010\000\000\0000\000\000\000"
      }
    }
  }
}
node {
  name: "MobilenetV2/expanded_conv_1/expand/weights/Initializer/truncated_normal/mean"
  op: "Const"
  attr {
    key: "_class"
    value {
      list {
        s: "loc:@MobilenetV2/expanded_conv_1/expand/weights"
      }
    }
  }
  attr {
    key: "dtype"
    value {
      type: DT_FLOAT
    }
  }
  attr {
    key: "value"
    value {
      tensor {
        dtype: DT_FLOAT
        tensor_shape {
        }
        float_val: 0.0
      }
    }
  }
}
node {
  name: "MobilenetV2/expanded_conv_1/expand/weights/Initializer/truncated_normal/stddev"
  op: "Const"
  attr {
    key: "_class"
    value {
      list {
        s: "loc:@MobilenetV2/expanded_conv_1/expand/weights"
      }
    }
  }
  attr {
    key: "dtype"
    value {
      type: DT_FLOAT
    }
  }
  attr {
    key: "value"
    value {
      tensor {
        dtype: DT_FLOAT
        tensor_shape {
        }
        float_val: 0.09000000357627869
      }
    }
  }
}
node {
  name: "MobilenetV2/expanded_conv_1/expand/weights/Initializer/truncated_normal/TruncatedNormal"
  op: "TruncatedNormal"
  input: "MobilenetV2/expanded_conv_1/expand/weights/Initializer/truncated_normal/shape"
  attr {
    key: "T"
    value {
      type: DT_INT32
    }
  }
  attr {
    key: "_class"
    value {
      list {
        s: "loc:@MobilenetV2/expanded_conv_1/expand/weights"
      }
    }
  }
  attr {
    key: "dtype"
    value {
      type: DT_FLOAT
    }
  }
  attr {
    key: "seed"
    value {
      i: 0
    }
  }
  attr {
    key: "seed2"
    value {
      i: 0
    }
  }
}
node {
  name: "MobilenetV2/expanded_conv_1/expand/weights/Initializer/truncated_normal/mul"
  op: "Mul"
  input: "MobilenetV2/expanded_conv_1/expand/weights/Initializer/truncated_normal/TruncatedNormal"
  input: "MobilenetV2/expanded_conv_1/expand/weights/Initializer/truncated_normal/stddev"
  attr {
    key: "T"
    value {
      type: DT_FLOAT
    }
  }
  attr {
    key: "_class"
    value {
      list {
        s: "loc:@MobilenetV2/expanded_conv_1/expand/weights"
      }
    }
  }
}
node {
  name: "MobilenetV2/expanded_conv_1/expand/weights/Initializer/truncated_normal"
  op: "AddV2"
  input: "MobilenetV2/expanded_conv_1/expand/weights/Initializer/truncated_normal/mul"
  input: "MobilenetV2/expanded_conv_1/expand/weights/Initializer/truncated_normal/mean"
  attr {
    key: "T"
    value {
      type: DT_FLOAT
    }
  }
  attr {
    key: "_class"
    value {
      list {
        s: "loc:@MobilenetV2/expanded_conv_1/expand/weights"
      }
    }
  }
}
node {
  name: "MobilenetV2/expanded_conv_1/expand/weights"
  op: "VarHandleOp"
  attr {
    key: "_class"
    value {
      list {
        s: "loc:@MobilenetV2/expanded_conv_1/expand/weights"
      }
    }
  }
  attr {
    key: "allowed_devices"
    value {
      list {
      }
    }
  }
  attr {
    key: "container"
    value {
      s: ""
    }
  }
  attr {
    key: "dtype"
    value {
      type: DT_FLOAT
    }
  }
  attr {
    key: "shape"
    value {
      shape {
        dim {
          size: 1
        }
        dim {
          size: 1
        }
        dim {
          size: 8
        }
        dim {
          size: 48
        }
      }
    }
  }
  attr {
    key: "shared_name"
    value {
      s: "MobilenetV2/expanded_conv_1/expand/weights"
    }
  }
}
node {
  name: "MobilenetV2/expanded_conv_1/expand/weights/IsInitialized/VarIsInitializedOp"
  op: "VarIsInitializedOp"
  input: "MobilenetV2/expanded_conv_1/expand/weights"
}
node {
  name: "MobilenetV2/expanded_conv_1/expand/weights/Assign"
  op: "AssignVariableOp"
  input: "MobilenetV2/expanded_conv_1/expand/weights"
  input: "MobilenetV2/expanded_conv_1/expand/weights/Initializer/truncated_normal"
  attr {
    key: "dtype"
    value {
      type: DT_FLOAT
    }
  }
  attr {
    key: "validate_shape"
    value {
      b: false
    }
  }
}
node {
  name: "MobilenetV2/expanded_conv_1/expand/weights/Read/ReadVariableOp"
  op: "ReadVariableOp"
  input: "MobilenetV2/expanded_conv_1/expand/weights"
  attr {
    key: "dtype"
    value {
      type: DT_FLOAT
    }
  }
}
node {
  name: "MobilenetV2/expanded_conv_1/expand/kernel/Regularizer/Square/ReadVariableOp"
  op: "ReadVariableOp"
  input: "MobilenetV2/expanded_conv_1/expand/weights"
  attr {
    key: "dtype"
    value {
      type: DT_FLOAT
    }
  }
}
node {
  name: "MobilenetV2/expanded_conv_1/expand/kernel/Regularizer/Square"
  op: "Square"
  input: "MobilenetV2/expanded_conv_1/expand/kernel/Regularizer/Square/ReadVariableOp"
  attr {
    key: "T"
    value {
      type: DT_FLOAT
    }
  }
}
node {
  name: "MobilenetV2/expanded_conv_1/expand/kernel/Regularizer/Const"
  op: "Const"
  attr {
    key: "dtype"
    value {
      type: DT_INT32
    }
  }
  attr {
    key: "value"
    value {
      tensor {
        dtype: DT_INT32
        tensor_shape {
          dim {
            size: 4
          }
        }
        tensor_content: "\000\000\000\000\001\000\000\000\002\000\000\000\003\000\000\000"
      }
    }
  }
}
node {
  name: "MobilenetV2/expanded_conv_1/expand/kernel/Regularizer/Sum"
  op: "Sum"
  input: "MobilenetV2/expanded_conv_1/expand/kernel/Regularizer/Square"
  input: "MobilenetV2/expanded_conv_1/expand/kernel/Regularizer/Const"
  attr {
    key: "T"
    value {
      type: DT_FLOAT
    }
  }
  attr {
    key: "Tidx"
    value {
      type: DT_INT32
    }
  }
  attr {
    key: "keep_dims"
    value {
      b: false
    }
  }
}
node {
  name: "MobilenetV2/expanded_conv_1/expand/kernel/Regularizer/mul/x"
  op: "Const"
  attr {
    key: "dtype"
    value {
      type: DT_FLOAT
    }
  }
  attr {
    key: "value"
    value {
      tensor {
        dtype: DT_FLOAT
        tensor_shape {
        }
        float_val: 1.9999999494757503e-05
      }
    }
  }
}
node {
  name: "MobilenetV2/expanded_conv_1/expand/kernel/Regularizer/mul"
  op: "Mul"
  input: "MobilenetV2/expanded_conv_1/expand/kernel/Regularizer/mul/x"
  input: "MobilenetV2/expanded_conv_1/expand/kernel/Regularizer/Sum"
  attr {
    key: "T"
    value {
      type: DT_FLOAT
    }
  }
}
node {
  name: "MobilenetV2/expanded_conv_1/expand/Conv2D/ReadVariableOp"
  op: "ReadVariableOp"
  input: "MobilenetV2/expanded_conv_1/expand/weights"
  attr {
    key: "dtype"
    value {
      type: DT_FLOAT
    }
  }
}
node {
  name: "MobilenetV2/expanded_conv_1/expand/Conv2D"
  op: "Conv2D"
  input: "MobilenetV2/expanded_conv_1/input"
  input: "MobilenetV2/expanded_conv_1/expand/Conv2D/ReadVariableOp"
  attr {
    key: "T"
    value {
      type: DT_FLOAT
    }
  }
  attr {
    key: "data_format"
    value {
      s: "NHWC"
    }
  }
  attr {
    key: "dilations"
    value {
      list {
        i: 1
        i: 1
        i: 1
        i: 1
      }
    }
  }
  attr {
    key: "explicit_paddings"
    value {
      list {
      }
    }
  }
  attr {
    key: "padding"
    value {
      s: "SAME"
    }
  }
  attr {
    key: "strides"
    value {
      list {
        i: 1
        i: 1
        i: 1
        i: 1
      }
    }
  }
  attr {
    key: "use_cudnn_on_gpu"
    value {
      b: true
    }
  }
}
node {
  name: "MobilenetV2/expanded_conv_1/expand/BatchNorm/gamma/Initializer/ones"
  op: "Const"
  attr {
    key: "_class"
    value {
      list {
        s: "loc:@MobilenetV2/expanded_conv_1/expand/BatchNorm/gamma"
      }
    }
  }
  attr {
    key: "dtype"
    value {
      type: DT_FLOAT
    }
  }
  attr {
    key: "value"
    value {
      tensor {
        dtype: DT_FLOAT
        tensor_shape {
          dim {
            size: 48
          }
        }
        float_val: 1.0
      }
    }
  }
}
node {
  name: "MobilenetV2/expanded_conv_1/expand/BatchNorm/gamma"
  op: "VarHandleOp"
  attr {
    key: "_class"
    value {
      list {
        s: "loc:@MobilenetV2/expanded_conv_1/expand/BatchNorm/gamma"
      }
    }
  }
  attr {
    key: "allowed_devices"
    value {
      list {
      }
    }
  }
  attr {
    key: "container"
    value {
      s: ""
    }
  }
  attr {
    key: "dtype"
    value {
      type: DT_FLOAT
    }
  }
  attr {
    key: "shape"
    value {
      shape {
        dim {
          size: 48
        }
      }
    }
  }
  attr {
    key: "shared_name"
    value {
      s: "MobilenetV2/expanded_conv_1/expand/BatchNorm/gamma"
    }
  }
}
node {
  name: "MobilenetV2/expanded_conv_1/expand/BatchNorm/gamma/IsInitialized/VarIsInitializedOp"
  op: "VarIsInitializedOp"
  input: "MobilenetV2/expanded_conv_1/expand/BatchNorm/gamma"
}
node {
  name: "MobilenetV2/expanded_conv_1/expand/BatchNorm/gamma/Assign"
  op: "AssignVariableOp"
  input: "MobilenetV2/expanded_conv_1/expand/BatchNorm/gamma"
  input: "MobilenetV2/expanded_conv_1/expand/BatchNorm/gamma/Initializer/ones"
  attr {
    key: "dtype"
    value {
      type: DT_FLOAT
    }
  }
  attr {
    key: "validate_shape"
    value {
      b: false
    }
  }
}
node {
  name: "MobilenetV2/expanded_conv_1/expand/BatchNorm/gamma/Read/ReadVariableOp"
  op: "ReadVariableOp"
  input: "MobilenetV2/expanded_conv_1/expand/BatchNorm/gamma"
  attr {
    key: "dtype"
    value {
      type: DT_FLOAT
    }
  }
}
node {
  name: "MobilenetV2/expanded_conv_1/expand/BatchNorm/beta/Initializer/zeros"
  op: "Const"
  attr {
    key: "_class"
    value {
      list {
        s: "loc:@MobilenetV2/expanded_conv_1/expand/BatchNorm/beta"
      }
    }
  }
  attr {
    key: "dtype"
    value {
      type: DT_FLOAT
    }
  }
  attr {
    key: "value"
    value {
      tensor {
        dtype: DT_FLOAT
        tensor_shape {
          dim {
            size: 48
          }
        }
        float_val: 0.0
      }
    }
  }
}
node {
  name: "MobilenetV2/expanded_conv_1/expand/BatchNorm/beta"
  op: "VarHandleOp"
  attr {
    key: "_class"
    value {
      list {
        s: "loc:@MobilenetV2/expanded_conv_1/expand/BatchNorm/beta"
      }
    }
  }
  attr {
    key: "allowed_devices"
    value {
      list {
      }
    }
  }
  attr {
    key: "container"
    value {
      s: ""
    }
  }
  attr {
    key: "dtype"
    value {
      type: DT_FLOAT
    }
  }
  attr {
    key: "shape"
    value {
      shape {
        dim {
          size: 48
        }
      }
    }
  }
  attr {
    key: "shared_name"
    value {
      s: "MobilenetV2/expanded_conv_1/expand/BatchNorm/beta"
    }
  }
}
node {
  name: "MobilenetV2/expanded_conv_1/expand/BatchNorm/beta/IsInitialized/VarIsInitializedOp"
  op: "VarIsInitializedOp"
  input: "MobilenetV2/expanded_conv_1/expand/BatchNorm/beta"
}
node {
  name: "MobilenetV2/expanded_conv_1/expand/BatchNorm/beta/Assign"
  op: "AssignVariableOp"
  input: "MobilenetV2/expanded_conv_1/expand/BatchNorm/beta"
  input: "MobilenetV2/expanded_conv_1/expand/BatchNorm/beta/Initializer/zeros"
  attr {
    key: "dtype"
    value {
      type: DT_FLOAT
    }
  }
  attr {
    key: "validate_shape"
    value {
      b: false
    }
  }
}
node {
  name: "MobilenetV2/expanded_conv_1/expand/BatchNorm/beta/Read/ReadVariableOp"
  op: "ReadVariableOp"
  input: "MobilenetV2/expanded_conv_1/expand/BatchNorm/beta"
  attr {
    key: "dtype"
    value {
      type: DT_FLOAT
    }
  }
}
node {
  name: "MobilenetV2/expanded_conv_1/expand/BatchNorm/moving_mean/Initializer/zeros"
  op: "Const"
  attr {
    key: "_class"
    value {
      list {
        s: "loc:@MobilenetV2/expanded_conv_1/expand/BatchNorm/moving_mean"
      }
    }
  }
  attr {
    key: "dtype"
    value {
      type: DT_FLOAT
    }
  }
  attr {
    key: "value"
    value {
      tensor {
        dtype: DT_FLOAT
        tensor_shape {
          dim {
            size: 48
          }
        }
        float_val: 0.0
      }
    }
  }
}
node {
  name: "MobilenetV2/expanded_conv_1/expand/BatchNorm/moving_mean"
  op: "VarHandleOp"
  attr {
    key: "_class"
    value {
      list {
        s: "loc:@MobilenetV2/expanded_conv_1/expand/BatchNorm/moving_mean"
      }
    }
  }
  attr {
    key: "allowed_devices"
    value {
      list {
      }
    }
  }
  attr {
    key: "container"
    value {
      s: ""
    }
  }
  attr {
    key: "dtype"
    value {
      type: DT_FLOAT
    }
  }
  attr {
    key: "shape"
    value {
      shape {
        dim {
          size: 48
        }
      }
    }
  }
  attr {
    key: "shared_name"
    value {
      s: "MobilenetV2/expanded_conv_1/expand/BatchNorm/moving_mean"
    }
  }
}
node {
  name: "MobilenetV2/expanded_conv_1/expand/BatchNorm/moving_mean/IsInitialized/VarIsInitializedOp"
  op: "VarIsInitializedOp"
  input: "MobilenetV2/expanded_conv_1/expand/BatchNorm/moving_mean"
}
node {
  name: "MobilenetV2/expanded_conv_1/expand/BatchNorm/moving_mean/Assign"
  op: "AssignVariableOp"
  input: "MobilenetV2/expanded_conv_1/expand/BatchNorm/moving_mean"
  input: "MobilenetV2/expanded_conv_1/expand/BatchNorm/moving_mean/Initializer/zeros"
  attr {
    key: "dtype"
    value {
      type: DT_FLOAT
    }
  }
  attr {
    key: "validate_shape"
    value {
      b: false
    }
  }
}
node {
  name: "MobilenetV2/expanded_conv_1/expand/BatchNorm/moving_mean/Read/ReadVariableOp"
  op: "ReadVariableOp"
  input: "MobilenetV2/expanded_conv_1/expand/BatchNorm/moving_mean"
  attr {
    key: "dtype"
    value {
      type: DT_FLOAT
    }
  }
}
node {
  name: "MobilenetV2/expanded_conv_1/expand/BatchNorm/moving_variance/Initializer/ones"
  op: "Const"
  attr {
    key: "_class"
    value {
      list {
        s: "loc:@MobilenetV2/expanded_conv_1/expand/BatchNorm/moving_variance"
      }
    }
  }
  attr {
    key: "dtype"
    value {
      type: DT_FLOAT
    }
  }
  attr {
    key: "value"
    value {
      tensor {
        dtype: DT_FLOAT
        tensor_shape {
          dim {
            size: 48
          }
        }
        float_val: 1.0
      }
    }
  }
}
node {
  name: "MobilenetV2/expanded_conv_1/expand/BatchNorm/moving_variance"
  op: "VarHandleOp"
  attr {
    key: "_class"
    value {
      list {
        s: "loc:@MobilenetV2/expanded_conv_1/expand/BatchNorm/moving_variance"
      }
    }
  }
  attr {
    key: "allowed_devices"
    value {
      list {
      }
    }
  }
  attr {
    key: "container"
    value {
      s: ""
    }
  }
  attr {
    key: "dtype"
    value {
      type: DT_FLOAT
    }
  }
  attr {
    key: "shape"
    value {
      shape {
        dim {
          size: 48
        }
      }
    }
  }
  attr {
    key: "shared_name"
    value {
      s: "MobilenetV2/expanded_conv_1/expand/BatchNorm/moving_variance"
    }
  }
}
node {
  name: "MobilenetV2/expanded_conv_1/expand/BatchNorm/moving_variance/IsInitialized/VarIsInitializedOp"
  op: "VarIsInitializedOp"
  input: "MobilenetV2/expanded_conv_1/expand/BatchNorm/moving_variance"
}
node {
  name: "MobilenetV2/expanded_conv_1/expand/BatchNorm/moving_variance/Assign"
  op: "AssignVariableOp"
  input: "MobilenetV2/expanded_conv_1/expand/BatchNorm/moving_variance"
  input: "MobilenetV2/expanded_conv_1/expand/BatchNorm/moving_variance/Initializer/ones"
  attr {
    key: "dtype"
    value {
      type: DT_FLOAT
    }
  }
  attr {
    key: "validate_shape"
    value {
      b: false
    }
  }
}
node {
  name: "MobilenetV2/expanded_conv_1/expand/BatchNorm/moving_variance/Read/ReadVariableOp"
  op: "ReadVariableOp"
  input: "MobilenetV2/expanded_conv_1/expand/BatchNorm/moving_variance"
  attr {
    key: "dtype"
    value {
      type: DT_FLOAT
    }
  }
}
node {
  name: "MobilenetV2/expanded_conv_1/expand/BatchNorm/ReadVariableOp"
  op: "ReadVariableOp"
  input: "MobilenetV2/expanded_conv_1/expand/BatchNorm/gamma"
  attr {
    key: "dtype"
    value {
      type: DT_FLOAT
    }
  }
}
node {
  name: "MobilenetV2/expanded_conv_1/expand/BatchNorm/ReadVariableOp_1"
  op: "ReadVariableOp"
  input: "MobilenetV2/expanded_conv_1/expand/BatchNorm/beta"
  attr {
    key: "dtype"
    value {
      type: DT_FLOAT
    }
  }
}
node {
  name: "MobilenetV2/expanded_conv_1/expand/BatchNorm/FusedBatchNormV3/ReadVariableOp"
  op: "ReadVariableOp"
  input: "MobilenetV2/expanded_conv_1/expand/BatchNorm/moving_mean"
  attr {
    key: "dtype"
    value {
      type: DT_FLOAT
    }
  }
}
node {
  name: "MobilenetV2/expanded_conv_1/expand/BatchNorm/FusedBatchNormV3/ReadVariableOp_1"
  op: "ReadVariableOp"
  input: "MobilenetV2/expanded_conv_1/expand/BatchNorm/moving_variance"
  attr {
    key: "dtype"
    value {
      type: DT_FLOAT
    }
  }
}
node {
  name: "MobilenetV2/expanded_conv_1/expand/BatchNorm/FusedBatchNormV3"
  op: "FusedBatchNormV3"
  input: "MobilenetV2/expanded_conv_1/expand/Conv2D"
  input: "MobilenetV2/expanded_conv_1/expand/BatchNorm/ReadVariableOp"
  input: "MobilenetV2/expanded_conv_1/expand/BatchNorm/ReadVariableOp_1"
  input: "MobilenetV2/expanded_conv_1/expand/BatchNorm/FusedBatchNormV3/ReadVariableOp"
  input: "MobilenetV2/expanded_conv_1/expand/BatchNorm/FusedBatchNormV3/ReadVariableOp_1"
  attr {
    key: "T"
    value {
      type: DT_FLOAT
    }
  }
  attr {
    key: "U"
    value {
      type: DT_FLOAT
    }
  }
  attr {
    key: "data_format"
    value {
      s: "NHWC"
    }
  }
  attr {
    key: "epsilon"
    value {
      f: 0.0010000000474974513
    }
  }
  attr {
    key: "exponential_avg_factor"
    value {
      f: 1.0
    }
  }
  attr {
    key: "is_training"
    value {
      b: true
    }
  }
}
node {
  name: "MobilenetV2/expanded_conv_1/expand/BatchNorm/Const"
  op: "Const"
  attr {
    key: "dtype"
    value {
      type: DT_FLOAT
    }
  }
  attr {
    key: "value"
    value {
      tensor {
        dtype: DT_FLOAT
        tensor_shape {
        }
        float_val: 0.996999979019165
      }
    }
  }
}
node {
  name: "MobilenetV2/expanded_conv_1/expand/BatchNorm/AssignMovingAvg/sub/x"
  op: "Const"
  attr {
    key: "_class"
    value {
      list {
        s: "loc:@MobilenetV2/expanded_conv_1/expand/BatchNorm/moving_mean"
      }
    }
  }
  attr {
    key: "dtype"
    value {
      type: DT_FLOAT
    }
  }
  attr {
    key: "value"
    value {
      tensor {
        dtype: DT_FLOAT
        tensor_shape {
        }
        float_val: 1.0
      }
    }
  }
}
node {
  name: "MobilenetV2/expanded_conv_1/expand/BatchNorm/AssignMovingAvg/sub"
  op: "Sub"
  input: "MobilenetV2/expanded_conv_1/expand/BatchNorm/AssignMovingAvg/sub/x"
  input: "MobilenetV2/expanded_conv_1/expand/BatchNorm/Const"
  attr {
    key: "T"
    value {
      type: DT_FLOAT
    }
  }
  attr {
    key: "_class"
    value {
      list {
        s: "loc:@MobilenetV2/expanded_conv_1/expand/BatchNorm/moving_mean"
      }
    }
  }
}
node {
  name: "MobilenetV2/expanded_conv_1/expand/BatchNorm/AssignMovingAvg/ReadVariableOp"
  op: "ReadVariableOp"
  input: "MobilenetV2/expanded_conv_1/expand/BatchNorm/moving_mean"
  attr {
    key: "dtype"
    value {
      type: DT_FLOAT
    }
  }
}
node {
  name: "MobilenetV2/expanded_conv_1/expand/BatchNorm/AssignMovingAvg/sub_1"
  op: "Sub"
  input: "MobilenetV2/expanded_conv_1/expand/BatchNorm/AssignMovingAvg/ReadVariableOp"
  input: "MobilenetV2/expanded_conv_1/expand/BatchNorm/FusedBatchNormV3:1"
  attr {
    key: "T"
    value {
      type: DT_FLOAT
    }
  }
  attr {
    key: "_class"
    value {
      list {
        s: "loc:@MobilenetV2/expanded_conv_1/expand/BatchNorm/moving_mean"
      }
    }
  }
}
node {
  name: "MobilenetV2/expanded_conv_1/expand/BatchNorm/AssignMovingAvg/mul"
  op: "Mul"
  input: "MobilenetV2/expanded_conv_1/expand/BatchNorm/AssignMovingAvg/sub_1"
  input: "MobilenetV2/expanded_conv_1/expand/BatchNorm/AssignMovingAvg/sub"
  attr {
    key: "T"
    value {
      type: DT_FLOAT
    }
  }
  attr {
    key: "_class"
    value {
      list {
        s: "loc:@MobilenetV2/expanded_conv_1/expand/BatchNorm/moving_mean"
      }
    }
  }
}
node {
  name: "MobilenetV2/expanded_conv_1/expand/BatchNorm/AssignMovingAvg/AssignSubVariableOp"
  op: "AssignSubVariableOp"
  input: "MobilenetV2/expanded_conv_1/expand/BatchNorm/moving_mean"
  input: "MobilenetV2/expanded_conv_1/expand/BatchNorm/AssignMovingAvg/mul"
  attr {
    key: "_class"
    value {
      list {
        s: "loc:@MobilenetV2/expanded_conv_1/expand/BatchNorm/moving_mean"
      }
    }
  }
  attr {
    key: "dtype"
    value {
      type: DT_FLOAT
    }
  }
}
node {
  name: "MobilenetV2/expanded_conv_1/expand/BatchNorm/AssignMovingAvg/ReadVariableOp_1"
  op: "ReadVariableOp"
  input: "MobilenetV2/expanded_conv_1/expand/BatchNorm/moving_mean"
  input: "^MobilenetV2/expanded_conv_1/expand/BatchNorm/AssignMovingAvg/AssignSubVariableOp"
  attr {
    key: "_class"
    value {
      list {
        s: "loc:@MobilenetV2/expanded_conv_1/expand/BatchNorm/moving_mean"
      }
    }
  }
  attr {
    key: "dtype"
    value {
      type: DT_FLOAT
    }
  }
}
node {
  name: "MobilenetV2/expanded_conv_1/expand/BatchNorm/AssignMovingAvg_1/sub/x"
  op: "Const"
  attr {
    key: "_class"
    value {
      list {
        s: "loc:@MobilenetV2/expanded_conv_1/expand/BatchNorm/moving_variance"
      }
    }
  }
  attr {
    key: "dtype"
    value {
      type: DT_FLOAT
    }
  }
  attr {
    key: "value"
    value {
      tensor {
        dtype: DT_FLOAT
        tensor_shape {
        }
        float_val: 1.0
      }
    }
  }
}
node {
  name: "MobilenetV2/expanded_conv_1/expand/BatchNorm/AssignMovingAvg_1/sub"
  op: "Sub"
  input: "MobilenetV2/expanded_conv_1/expand/BatchNorm/AssignMovingAvg_1/sub/x"
  input: "MobilenetV2/expanded_conv_1/expand/BatchNorm/Const"
  attr {
    key: "T"
    value {
      type: DT_FLOAT
    }
  }
  attr {
    key: "_class"
    value {
      list {
        s: "loc:@MobilenetV2/expanded_conv_1/expand/BatchNorm/moving_variance"
      }
    }
  }
}
node {
  name: "MobilenetV2/expanded_conv_1/expand/BatchNorm/AssignMovingAvg_1/ReadVariableOp"
  op: "ReadVariableOp"
  input: "MobilenetV2/expanded_conv_1/expand/BatchNorm/moving_variance"
  attr {
    key: "dtype"
    value {
      type: DT_FLOAT
    }
  }
}
node {
  name: "MobilenetV2/expanded_conv_1/expand/BatchNorm/AssignMovingAvg_1/sub_1"
  op: "Sub"
  input: "MobilenetV2/expanded_conv_1/expand/BatchNorm/AssignMovingAvg_1/ReadVariableOp"
  input: "MobilenetV2/expanded_conv_1/expand/BatchNorm/FusedBatchNormV3:2"
  attr {
    key: "T"
    value {
      type: DT_FLOAT
    }
  }
  attr {
    key: "_class"
    value {
      list {
        s: "loc:@MobilenetV2/expanded_conv_1/expand/BatchNorm/moving_variance"
      }
    }
  }
}
node {
  name: "MobilenetV2/expanded_conv_1/expand/BatchNorm/AssignMovingAvg_1/mul"
  op: "Mul"
  input: "MobilenetV2/expanded_conv_1/expand/BatchNorm/AssignMovingAvg_1/sub_1"
  input: "MobilenetV2/expanded_conv_1/expand/BatchNorm/AssignMovingAvg_1/sub"
  attr {
    key: "T"
    value {
      type: DT_FLOAT
    }
  }
  attr {
    key: "_class"
    value {
      list {
        s: "loc:@MobilenetV2/expanded_conv_1/expand/BatchNorm/moving_variance"
      }
    }
  }
}
node {
  name: "MobilenetV2/expanded_conv_1/expand/BatchNorm/AssignMovingAvg_1/AssignSubVariableOp"
  op: "AssignSubVariableOp"
  input: "MobilenetV2/expanded_conv_1/expand/BatchNorm/moving_variance"
  input: "MobilenetV2/expanded_conv_1/expand/BatchNorm/AssignMovingAvg_1/mul"
  attr {
    key: "_class"
    value {
      list {
        s: "loc:@MobilenetV2/expanded_conv_1/expand/BatchNorm/moving_variance"
      }
    }
  }
  attr {
    key: "dtype"
    value {
      type: DT_FLOAT
    }
  }
}
node {
  name: "MobilenetV2/expanded_conv_1/expand/BatchNorm/AssignMovingAvg_1/ReadVariableOp_1"
  op: "ReadVariableOp"
  input: "MobilenetV2/expanded_conv_1/expand/BatchNorm/moving_variance"
  input: "^MobilenetV2/expanded_conv_1/expand/BatchNorm/AssignMovingAvg_1/AssignSubVariableOp"
  attr {
    key: "_class"
    value {
      list {
        s: "loc:@MobilenetV2/expanded_conv_1/expand/BatchNorm/moving_variance"
      }
    }
  }
  attr {
    key: "dtype"
    value {
      type: DT_FLOAT
    }
  }
}
node {
  name: "MobilenetV2/expanded_conv_1/expand/Relu6"
  op: "Relu6"
  input: "MobilenetV2/expanded_conv_1/expand/BatchNorm/FusedBatchNormV3"
  attr {
    key: "T"
    value {
      type: DT_FLOAT
    }
  }
}
node {
  name: "MobilenetV2/expanded_conv_1/expansion_output"
  op: "Identity"
  input: "MobilenetV2/expanded_conv_1/expand/Relu6"
  attr {
    key: "T"
    value {
      type: DT_FLOAT
    }
  }
}
node {
  name: "MobilenetV2/expanded_conv_1/depthwise/depthwise_weights/Initializer/truncated_normal/shape"
  op: "Const"
  attr {
    key: "_class"
    value {
      list {
        s: "loc:@MobilenetV2/expanded_conv_1/depthwise/depthwise_weights"
      }
    }
  }
  attr {
    key: "dtype"
    value {
      type: DT_INT32
    }
  }
  attr {
    key: "value"
    value {
      tensor {
        dtype: DT_INT32
        tensor_shape {
          dim {
            size: 4
          }
        }
        tensor_content: "\003\000\000\000\003\000\000\0000\000\000\000\001\000\000\000"
      }
    }
  }
}
node {
  name: "MobilenetV2/expanded_conv_1/depthwise/depthwise_weights/Initializer/truncated_normal/mean"
  op: "Const"
  attr {
    key: "_class"
    value {
      list {
        s: "loc:@MobilenetV2/expanded_conv_1/depthwise/depthwise_weights"
      }
    }
  }
  attr {
    key: "dtype"
    value {
      type: DT_FLOAT
    }
  }
  attr {
    key: "value"
    value {
      tensor {
        dtype: DT_FLOAT
        tensor_shape {
        }
        float_val: 0.0
      }
    }
  }
}
node {
  name: "MobilenetV2/expanded_conv_1/depthwise/depthwise_weights/Initializer/truncated_normal/stddev"
  op: "Const"
  attr {
    key: "_class"
    value {
      list {
        s: "loc:@MobilenetV2/expanded_conv_1/depthwise/depthwise_weights"
      }
    }
  }
  attr {
    key: "dtype"
    value {
      type: DT_FLOAT
    }
  }
  attr {
    key: "value"
    value {
      tensor {
        dtype: DT_FLOAT
        tensor_shape {
        }
        float_val: 0.09000000357627869
      }
    }
  }
}
node {
  name: "MobilenetV2/expanded_conv_1/depthwise/depthwise_weights/Initializer/truncated_normal/TruncatedNormal"
  op: "TruncatedNormal"
  input: "MobilenetV2/expanded_conv_1/depthwise/depthwise_weights/Initializer/truncated_normal/shape"
  attr {
    key: "T"
    value {
      type: DT_INT32
    }
  }
  attr {
    key: "_class"
    value {
      list {
        s: "loc:@MobilenetV2/expanded_conv_1/depthwise/depthwise_weights"
      }
    }
  }
  attr {
    key: "dtype"
    value {
      type: DT_FLOAT
    }
  }
  attr {
    key: "seed"
    value {
      i: 0
    }
  }
  attr {
    key: "seed2"
    value {
      i: 0
    }
  }
}
node {
  name: "MobilenetV2/expanded_conv_1/depthwise/depthwise_weights/Initializer/truncated_normal/mul"
  op: "Mul"
  input: "MobilenetV2/expanded_conv_1/depthwise/depthwise_weights/Initializer/truncated_normal/TruncatedNormal"
  input: "MobilenetV2/expanded_conv_1/depthwise/depthwise_weights/Initializer/truncated_normal/stddev"
  attr {
    key: "T"
    value {
      type: DT_FLOAT
    }
  }
  attr {
    key: "_class"
    value {
      list {
        s: "loc:@MobilenetV2/expanded_conv_1/depthwise/depthwise_weights"
      }
    }
  }
}
node {
  name: "MobilenetV2/expanded_conv_1/depthwise/depthwise_weights/Initializer/truncated_normal"
  op: "AddV2"
  input: "MobilenetV2/expanded_conv_1/depthwise/depthwise_weights/Initializer/truncated_normal/mul"
  input: "MobilenetV2/expanded_conv_1/depthwise/depthwise_weights/Initializer/truncated_normal/mean"
  attr {
    key: "T"
    value {
      type: DT_FLOAT
    }
  }
  attr {
    key: "_class"
    value {
      list {
        s: "loc:@MobilenetV2/expanded_conv_1/depthwise/depthwise_weights"
      }
    }
  }
}
node {
  name: "MobilenetV2/expanded_conv_1/depthwise/depthwise_weights"
  op: "VarHandleOp"
  attr {
    key: "_class"
    value {
      list {
        s: "loc:@MobilenetV2/expanded_conv_1/depthwise/depthwise_weights"
      }
    }
  }
  attr {
    key: "allowed_devices"
    value {
      list {
      }
    }
  }
  attr {
    key: "container"
    value {
      s: ""
    }
  }
  attr {
    key: "dtype"
    value {
      type: DT_FLOAT
    }
  }
  attr {
    key: "shape"
    value {
      shape {
        dim {
          size: 3
        }
        dim {
          size: 3
        }
        dim {
          size: 48
        }
        dim {
          size: 1
        }
      }
    }
  }
  attr {
    key: "shared_name"
    value {
      s: "MobilenetV2/expanded_conv_1/depthwise/depthwise_weights"
    }
  }
}
node {
  name: "MobilenetV2/expanded_conv_1/depthwise/depthwise_weights/IsInitialized/VarIsInitializedOp"
  op: "VarIsInitializedOp"
  input: "MobilenetV2/expanded_conv_1/depthwise/depthwise_weights"
}
node {
  name: "MobilenetV2/expanded_conv_1/depthwise/depthwise_weights/Assign"
  op: "AssignVariableOp"
  input: "MobilenetV2/expanded_conv_1/depthwise/depthwise_weights"
  input: "MobilenetV2/expanded_conv_1/depthwise/depthwise_weights/Initializer/truncated_normal"
  attr {
    key: "dtype"
    value {
      type: DT_FLOAT
    }
  }
  attr {
    key: "validate_shape"
    value {
      b: false
    }
  }
}
node {
  name: "MobilenetV2/expanded_conv_1/depthwise/depthwise_weights/Read/ReadVariableOp"
  op: "ReadVariableOp"
  input: "MobilenetV2/expanded_conv_1/depthwise/depthwise_weights"
  attr {
    key: "dtype"
    value {
      type: DT_FLOAT
    }
  }
}
node {
  name: "MobilenetV2/expanded_conv_1/depthwise/depthwise/ReadVariableOp"
  op: "ReadVariableOp"
  input: "MobilenetV2/expanded_conv_1/depthwise/depthwise_weights"
  attr {
    key: "dtype"
    value {
      type: DT_FLOAT
    }
  }
}
node {
  name: "MobilenetV2/expanded_conv_1/depthwise/depthwise/Shape"
  op: "Const"
  attr {
    key: "dtype"
    value {
      type: DT_INT32
    }
  }
  attr {
    key: "value"
    value {
      tensor {
        dtype: DT_INT32
        tensor_shape {
          dim {
            size: 4
          }
        }
        tensor_content: "\003\000\000\000\003\000\000\0000\000\000\000\001\000\000\000"
      }
    }
  }
}
node {
  name: "MobilenetV2/expanded_conv_1/depthwise/depthwise/dilation_rate"
  op: "Const"
  attr {
    key: "dtype"
    value {
      type: DT_INT32
    }
  }
  attr {
    key: "value"
    value {
      tensor {
        dtype: DT_INT32
        tensor_shape {
          dim {
            size: 2
          }
        }
        tensor_content: "\001\000\000\000\001\000\000\000"
      }
    }
  }
}
node {
  name: "MobilenetV2/expanded_conv_1/depthwise/depthwise"
  op: "DepthwiseConv2dNative"
  input: "MobilenetV2/expanded_conv_1/expansion_output"
  input: "MobilenetV2/expanded_conv_1/depthwise/depthwise/ReadVariableOp"
  attr {
    key: "T"
    value {
      type: DT_FLOAT
    }
  }
  attr {
    key: "data_format"
    value {
      s: "NHWC"
    }
  }
  attr {
    key: "dilations"
    value {
      list {
        i: 1
        i: 1
        i: 1
        i: 1
      }
    }
  }
  attr {
    key: "explicit_paddings"
    value {
      list {
      }
    }
  }
  attr {
    key: "padding"
    value {
      s: "SAME"
    }
  }
  attr {
    key: "strides"
    value {
      list {
        i: 1
        i: 2
        i: 2
        i: 1
      }
    }
  }
}
node {
  name: "MobilenetV2/expanded_conv_1/depthwise/BatchNorm/gamma/Initializer/ones"
  op: "Const"
  attr {
    key: "_class"
    value {
      list {
        s: "loc:@MobilenetV2/expanded_conv_1/depthwise/BatchNorm/gamma"
      }
    }
  }
  attr {
    key: "dtype"
    value {
      type: DT_FLOAT
    }
  }
  attr {
    key: "value"
    value {
      tensor {
        dtype: DT_FLOAT
        tensor_shape {
          dim {
            size: 48
          }
        }
        float_val: 1.0
      }
    }
  }
}
node {
  name: "MobilenetV2/expanded_conv_1/depthwise/BatchNorm/gamma"
  op: "VarHandleOp"
  attr {
    key: "_class"
    value {
      list {
        s: "loc:@MobilenetV2/expanded_conv_1/depthwise/BatchNorm/gamma"
      }
    }
  }
  attr {
    key: "allowed_devices"
    value {
      list {
      }
    }
  }
  attr {
    key: "container"
    value {
      s: ""
    }
  }
  attr {
    key: "dtype"
    value {
      type: DT_FLOAT
    }
  }
  attr {
    key: "shape"
    value {
      shape {
        dim {
          size: 48
        }
      }
    }
  }
  attr {
    key: "shared_name"
    value {
      s: "MobilenetV2/expanded_conv_1/depthwise/BatchNorm/gamma"
    }
  }
}
node {
  name: "MobilenetV2/expanded_conv_1/depthwise/BatchNorm/gamma/IsInitialized/VarIsInitializedOp"
  op: "VarIsInitializedOp"
  input: "MobilenetV2/expanded_conv_1/depthwise/BatchNorm/gamma"
}
node {
  name: "MobilenetV2/expanded_conv_1/depthwise/BatchNorm/gamma/Assign"
  op: "AssignVariableOp"
  input: "MobilenetV2/expanded_conv_1/depthwise/BatchNorm/gamma"
  input: "MobilenetV2/expanded_conv_1/depthwise/BatchNorm/gamma/Initializer/ones"
  attr {
    key: "dtype"
    value {
      type: DT_FLOAT
    }
  }
  attr {
    key: "validate_shape"
    value {
      b: false
    }
  }
}
node {
  name: "MobilenetV2/expanded_conv_1/depthwise/BatchNorm/gamma/Read/ReadVariableOp"
  op: "ReadVariableOp"
  input: "MobilenetV2/expanded_conv_1/depthwise/BatchNorm/gamma"
  attr {
    key: "dtype"
    value {
      type: DT_FLOAT
    }
  }
}
node {
  name: "MobilenetV2/expanded_conv_1/depthwise/BatchNorm/beta/Initializer/zeros"
  op: "Const"
  attr {
    key: "_class"
    value {
      list {
        s: "loc:@MobilenetV2/expanded_conv_1/depthwise/BatchNorm/beta"
      }
    }
  }
  attr {
    key: "dtype"
    value {
      type: DT_FLOAT
    }
  }
  attr {
    key: "value"
    value {
      tensor {
        dtype: DT_FLOAT
        tensor_shape {
          dim {
            size: 48
          }
        }
        float_val: 0.0
      }
    }
  }
}
node {
  name: "MobilenetV2/expanded_conv_1/depthwise/BatchNorm/beta"
  op: "VarHandleOp"
  attr {
    key: "_class"
    value {
      list {
        s: "loc:@MobilenetV2/expanded_conv_1/depthwise/BatchNorm/beta"
      }
    }
  }
  attr {
    key: "allowed_devices"
    value {
      list {
      }
    }
  }
  attr {
    key: "container"
    value {
      s: ""
    }
  }
  attr {
    key: "dtype"
    value {
      type: DT_FLOAT
    }
  }
  attr {
    key: "shape"
    value {
      shape {
        dim {
          size: 48
        }
      }
    }
  }
  attr {
    key: "shared_name"
    value {
      s: "MobilenetV2/expanded_conv_1/depthwise/BatchNorm/beta"
    }
  }
}
node {
  name: "MobilenetV2/expanded_conv_1/depthwise/BatchNorm/beta/IsInitialized/VarIsInitializedOp"
  op: "VarIsInitializedOp"
  input: "MobilenetV2/expanded_conv_1/depthwise/BatchNorm/beta"
}
node {
  name: "MobilenetV2/expanded_conv_1/depthwise/BatchNorm/beta/Assign"
  op: "AssignVariableOp"
  input: "MobilenetV2/expanded_conv_1/depthwise/BatchNorm/beta"
  input: "MobilenetV2/expanded_conv_1/depthwise/BatchNorm/beta/Initializer/zeros"
  attr {
    key: "dtype"
    value {
      type: DT_FLOAT
    }
  }
  attr {
    key: "validate_shape"
    value {
      b: false
    }
  }
}
node {
  name: "MobilenetV2/expanded_conv_1/depthwise/BatchNorm/beta/Read/ReadVariableOp"
  op: "ReadVariableOp"
  input: "MobilenetV2/expanded_conv_1/depthwise/BatchNorm/beta"
  attr {
    key: "dtype"
    value {
      type: DT_FLOAT
    }
  }
}
node {
  name: "MobilenetV2/expanded_conv_1/depthwise/BatchNorm/moving_mean/Initializer/zeros"
  op: "Const"
  attr {
    key: "_class"
    value {
      list {
        s: "loc:@MobilenetV2/expanded_conv_1/depthwise/BatchNorm/moving_mean"
      }
    }
  }
  attr {
    key: "dtype"
    value {
      type: DT_FLOAT
    }
  }
  attr {
    key: "value"
    value {
      tensor {
        dtype: DT_FLOAT
        tensor_shape {
          dim {
            size: 48
          }
        }
        float_val: 0.0
      }
    }
  }
}
node {
  name: "MobilenetV2/expanded_conv_1/depthwise/BatchNorm/moving_mean"
  op: "VarHandleOp"
  attr {
    key: "_class"
    value {
      list {
        s: "loc:@MobilenetV2/expanded_conv_1/depthwise/BatchNorm/moving_mean"
      }
    }
  }
  attr {
    key: "allowed_devices"
    value {
      list {
      }
    }
  }
  attr {
    key: "container"
    value {
      s: ""
    }
  }
  attr {
    key: "dtype"
    value {
      type: DT_FLOAT
    }
  }
  attr {
    key: "shape"
    value {
      shape {
        dim {
          size: 48
        }
      }
    }
  }
  attr {
    key: "shared_name"
    value {
      s: "MobilenetV2/expanded_conv_1/depthwise/BatchNorm/moving_mean"
    }
  }
}
node {
  name: "MobilenetV2/expanded_conv_1/depthwise/BatchNorm/moving_mean/IsInitialized/VarIsInitializedOp"
  op: "VarIsInitializedOp"
  input: "MobilenetV2/expanded_conv_1/depthwise/BatchNorm/moving_mean"
}
node {
  name: "MobilenetV2/expanded_conv_1/depthwise/BatchNorm/moving_mean/Assign"
  op: "AssignVariableOp"
  input: "MobilenetV2/expanded_conv_1/depthwise/BatchNorm/moving_mean"
  input: "MobilenetV2/expanded_conv_1/depthwise/BatchNorm/moving_mean/Initializer/zeros"
  attr {
    key: "dtype"
    value {
      type: DT_FLOAT
    }
  }
  attr {
    key: "validate_shape"
    value {
      b: false
    }
  }
}
node {
  name: "MobilenetV2/expanded_conv_1/depthwise/BatchNorm/moving_mean/Read/ReadVariableOp"
  op: "ReadVariableOp"
  input: "MobilenetV2/expanded_conv_1/depthwise/BatchNorm/moving_mean"
  attr {
    key: "dtype"
    value {
      type: DT_FLOAT
    }
  }
}
node {
  name: "MobilenetV2/expanded_conv_1/depthwise/BatchNorm/moving_variance/Initializer/ones"
  op: "Const"
  attr {
    key: "_class"
    value {
      list {
        s: "loc:@MobilenetV2/expanded_conv_1/depthwise/BatchNorm/moving_variance"
      }
    }
  }
  attr {
    key: "dtype"
    value {
      type: DT_FLOAT
    }
  }
  attr {
    key: "value"
    value {
      tensor {
        dtype: DT_FLOAT
        tensor_shape {
          dim {
            size: 48
          }
        }
        float_val: 1.0
      }
    }
  }
}
node {
  name: "MobilenetV2/expanded_conv_1/depthwise/BatchNorm/moving_variance"
  op: "VarHandleOp"
  attr {
    key: "_class"
    value {
      list {
        s: "loc:@MobilenetV2/expanded_conv_1/depthwise/BatchNorm/moving_variance"
      }
    }
  }
  attr {
    key: "allowed_devices"
    value {
      list {
      }
    }
  }
  attr {
    key: "container"
    value {
      s: ""
    }
  }
  attr {
    key: "dtype"
    value {
      type: DT_FLOAT
    }
  }
  attr {
    key: "shape"
    value {
      shape {
        dim {
          size: 48
        }
      }
    }
  }
  attr {
    key: "shared_name"
    value {
      s: "MobilenetV2/expanded_conv_1/depthwise/BatchNorm/moving_variance"
    }
  }
}
node {
  name: "MobilenetV2/expanded_conv_1/depthwise/BatchNorm/moving_variance/IsInitialized/VarIsInitializedOp"
  op: "VarIsInitializedOp"
  input: "MobilenetV2/expanded_conv_1/depthwise/BatchNorm/moving_variance"
}
node {
  name: "MobilenetV2/expanded_conv_1/depthwise/BatchNorm/moving_variance/Assign"
  op: "AssignVariableOp"
  input: "MobilenetV2/expanded_conv_1/depthwise/BatchNorm/moving_variance"
  input: "MobilenetV2/expanded_conv_1/depthwise/BatchNorm/moving_variance/Initializer/ones"
  attr {
    key: "dtype"
    value {
      type: DT_FLOAT
    }
  }
  attr {
    key: "validate_shape"
    value {
      b: false
    }
  }
}
node {
  name: "MobilenetV2/expanded_conv_1/depthwise/BatchNorm/moving_variance/Read/ReadVariableOp"
  op: "ReadVariableOp"
  input: "MobilenetV2/expanded_conv_1/depthwise/BatchNorm/moving_variance"
  attr {
    key: "dtype"
    value {
      type: DT_FLOAT
    }
  }
}
node {
  name: "MobilenetV2/expanded_conv_1/depthwise/BatchNorm/ReadVariableOp"
  op: "ReadVariableOp"
  input: "MobilenetV2/expanded_conv_1/depthwise/BatchNorm/gamma"
  attr {
    key: "dtype"
    value {
      type: DT_FLOAT
    }
  }
}
node {
  name: "MobilenetV2/expanded_conv_1/depthwise/BatchNorm/ReadVariableOp_1"
  op: "ReadVariableOp"
  input: "MobilenetV2/expanded_conv_1/depthwise/BatchNorm/beta"
  attr {
    key: "dtype"
    value {
      type: DT_FLOAT
    }
  }
}
node {
  name: "MobilenetV2/expanded_conv_1/depthwise/BatchNorm/FusedBatchNormV3/ReadVariableOp"
  op: "ReadVariableOp"
  input: "MobilenetV2/expanded_conv_1/depthwise/BatchNorm/moving_mean"
  attr {
    key: "dtype"
    value {
      type: DT_FLOAT
    }
  }
}
node {
  name: "MobilenetV2/expanded_conv_1/depthwise/BatchNorm/FusedBatchNormV3/ReadVariableOp_1"
  op: "ReadVariableOp"
  input: "MobilenetV2/expanded_conv_1/depthwise/BatchNorm/moving_variance"
  attr {
    key: "dtype"
    value {
      type: DT_FLOAT
    }
  }
}
node {
  name: "MobilenetV2/expanded_conv_1/depthwise/BatchNorm/FusedBatchNormV3"
  op: "FusedBatchNormV3"
  input: "MobilenetV2/expanded_conv_1/depthwise/depthwise"
  input: "MobilenetV2/expanded_conv_1/depthwise/BatchNorm/ReadVariableOp"
  input: "MobilenetV2/expanded_conv_1/depthwise/BatchNorm/ReadVariableOp_1"
  input: "MobilenetV2/expanded_conv_1/depthwise/BatchNorm/FusedBatchNormV3/ReadVariableOp"
  input: "MobilenetV2/expanded_conv_1/depthwise/BatchNorm/FusedBatchNormV3/ReadVariableOp_1"
  attr {
    key: "T"
    value {
      type: DT_FLOAT
    }
  }
  attr {
    key: "U"
    value {
      type: DT_FLOAT
    }
  }
  attr {
    key: "data_format"
    value {
      s: "NHWC"
    }
  }
  attr {
    key: "epsilon"
    value {
      f: 0.0010000000474974513
    }
  }
  attr {
    key: "exponential_avg_factor"
    value {
      f: 1.0
    }
  }
  attr {
    key: "is_training"
    value {
      b: true
    }
  }
}
node {
  name: "MobilenetV2/expanded_conv_1/depthwise/BatchNorm/Const"
  op: "Const"
  attr {
    key: "dtype"
    value {
      type: DT_FLOAT
    }
  }
  attr {
    key: "value"
    value {
      tensor {
        dtype: DT_FLOAT
        tensor_shape {
        }
        float_val: 0.996999979019165
      }
    }
  }
}
node {
  name: "MobilenetV2/expanded_conv_1/depthwise/BatchNorm/AssignMovingAvg/sub/x"
  op: "Const"
  attr {
    key: "_class"
    value {
      list {
        s: "loc:@MobilenetV2/expanded_conv_1/depthwise/BatchNorm/moving_mean"
      }
    }
  }
  attr {
    key: "dtype"
    value {
      type: DT_FLOAT
    }
  }
  attr {
    key: "value"
    value {
      tensor {
        dtype: DT_FLOAT
        tensor_shape {
        }
        float_val: 1.0
      }
    }
  }
}
node {
  name: "MobilenetV2/expanded_conv_1/depthwise/BatchNorm/AssignMovingAvg/sub"
  op: "Sub"
  input: "MobilenetV2/expanded_conv_1/depthwise/BatchNorm/AssignMovingAvg/sub/x"
  input: "MobilenetV2/expanded_conv_1/depthwise/BatchNorm/Const"
  attr {
    key: "T"
    value {
      type: DT_FLOAT
    }
  }
  attr {
    key: "_class"
    value {
      list {
        s: "loc:@MobilenetV2/expanded_conv_1/depthwise/BatchNorm/moving_mean"
      }
    }
  }
}
node {
  name: "MobilenetV2/expanded_conv_1/depthwise/BatchNorm/AssignMovingAvg/ReadVariableOp"
  op: "ReadVariableOp"
  input: "MobilenetV2/expanded_conv_1/depthwise/BatchNorm/moving_mean"
  attr {
    key: "dtype"
    value {
      type: DT_FLOAT
    }
  }
}
node {
  name: "MobilenetV2/expanded_conv_1/depthwise/BatchNorm/AssignMovingAvg/sub_1"
  op: "Sub"
  input: "MobilenetV2/expanded_conv_1/depthwise/BatchNorm/AssignMovingAvg/ReadVariableOp"
  input: "MobilenetV2/expanded_conv_1/depthwise/BatchNorm/FusedBatchNormV3:1"
  attr {
    key: "T"
    value {
      type: DT_FLOAT
    }
  }
  attr {
    key: "_class"
    value {
      list {
        s: "loc:@MobilenetV2/expanded_conv_1/depthwise/BatchNorm/moving_mean"
      }
    }
  }
}
node {
  name: "MobilenetV2/expanded_conv_1/depthwise/BatchNorm/AssignMovingAvg/mul"
  op: "Mul"
  input: "MobilenetV2/expanded_conv_1/depthwise/BatchNorm/AssignMovingAvg/sub_1"
  input: "MobilenetV2/expanded_conv_1/depthwise/BatchNorm/AssignMovingAvg/sub"
  attr {
    key: "T"
    value {
      type: DT_FLOAT
    }
  }
  attr {
    key: "_class"
    value {
      list {
        s: "loc:@MobilenetV2/expanded_conv_1/depthwise/BatchNorm/moving_mean"
      }
    }
  }
}
node {
  name: "MobilenetV2/expanded_conv_1/depthwise/BatchNorm/AssignMovingAvg/AssignSubVariableOp"
  op: "AssignSubVariableOp"
  input: "MobilenetV2/expanded_conv_1/depthwise/BatchNorm/moving_mean"
  input: "MobilenetV2/expanded_conv_1/depthwise/BatchNorm/AssignMovingAvg/mul"
  attr {
    key: "_class"
    value {
      list {
        s: "loc:@MobilenetV2/expanded_conv_1/depthwise/BatchNorm/moving_mean"
      }
    }
  }
  attr {
    key: "dtype"
    value {
      type: DT_FLOAT
    }
  }
}
node {
  name: "MobilenetV2/expanded_conv_1/depthwise/BatchNorm/AssignMovingAvg/ReadVariableOp_1"
  op: "ReadVariableOp"
  input: "MobilenetV2/expanded_conv_1/depthwise/BatchNorm/moving_mean"
  input: "^MobilenetV2/expanded_conv_1/depthwise/BatchNorm/AssignMovingAvg/AssignSubVariableOp"
  attr {
    key: "_class"
    value {
      list {
        s: "loc:@MobilenetV2/expanded_conv_1/depthwise/BatchNorm/moving_mean"
      }
    }
  }
  attr {
    key: "dtype"
    value {
      type: DT_FLOAT
    }
  }
}
node {
  name: "MobilenetV2/expanded_conv_1/depthwise/BatchNorm/AssignMovingAvg_1/sub/x"
  op: "Const"
  attr {
    key: "_class"
    value {
      list {
        s: "loc:@MobilenetV2/expanded_conv_1/depthwise/BatchNorm/moving_variance"
      }
    }
  }
  attr {
    key: "dtype"
    value {
      type: DT_FLOAT
    }
  }
  attr {
    key: "value"
    value {
      tensor {
        dtype: DT_FLOAT
        tensor_shape {
        }
        float_val: 1.0
      }
    }
  }
}
node {
  name: "MobilenetV2/expanded_conv_1/depthwise/BatchNorm/AssignMovingAvg_1/sub"
  op: "Sub"
  input: "MobilenetV2/expanded_conv_1/depthwise/BatchNorm/AssignMovingAvg_1/sub/x"
  input: "MobilenetV2/expanded_conv_1/depthwise/BatchNorm/Const"
  attr {
    key: "T"
    value {
      type: DT_FLOAT
    }
  }
  attr {
    key: "_class"
    value {
      list {
        s: "loc:@MobilenetV2/expanded_conv_1/depthwise/BatchNorm/moving_variance"
      }
    }
  }
}
node {
  name: "MobilenetV2/expanded_conv_1/depthwise/BatchNorm/AssignMovingAvg_1/ReadVariableOp"
  op: "ReadVariableOp"
  input: "MobilenetV2/expanded_conv_1/depthwise/BatchNorm/moving_variance"
  attr {
    key: "dtype"
    value {
      type: DT_FLOAT
    }
  }
}
node {
  name: "MobilenetV2/expanded_conv_1/depthwise/BatchNorm/AssignMovingAvg_1/sub_1"
  op: "Sub"
  input: "MobilenetV2/expanded_conv_1/depthwise/BatchNorm/AssignMovingAvg_1/ReadVariableOp"
  input: "MobilenetV2/expanded_conv_1/depthwise/BatchNorm/FusedBatchNormV3:2"
  attr {
    key: "T"
    value {
      type: DT_FLOAT
    }
  }
  attr {
    key: "_class"
    value {
      list {
        s: "loc:@MobilenetV2/expanded_conv_1/depthwise/BatchNorm/moving_variance"
      }
    }
  }
}
node {
  name: "MobilenetV2/expanded_conv_1/depthwise/BatchNorm/AssignMovingAvg_1/mul"
  op: "Mul"
  input: "MobilenetV2/expanded_conv_1/depthwise/BatchNorm/AssignMovingAvg_1/sub_1"
  input: "MobilenetV2/expanded_conv_1/depthwise/BatchNorm/AssignMovingAvg_1/sub"
  attr {
    key: "T"
    value {
      type: DT_FLOAT
    }
  }
  attr {
    key: "_class"
    value {
      list {
        s: "loc:@MobilenetV2/expanded_conv_1/depthwise/BatchNorm/moving_variance"
      }
    }
  }
}
node {
  name: "MobilenetV2/expanded_conv_1/depthwise/BatchNorm/AssignMovingAvg_1/AssignSubVariableOp"
  op: "AssignSubVariableOp"
  input: "MobilenetV2/expanded_conv_1/depthwise/BatchNorm/moving_variance"
  input: "MobilenetV2/expanded_conv_1/depthwise/BatchNorm/AssignMovingAvg_1/mul"
  attr {
    key: "_class"
    value {
      list {
        s: "loc:@MobilenetV2/expanded_conv_1/depthwise/BatchNorm/moving_variance"
      }
    }
  }
  attr {
    key: "dtype"
    value {
      type: DT_FLOAT
    }
  }
}
node {
  name: "MobilenetV2/expanded_conv_1/depthwise/BatchNorm/AssignMovingAvg_1/ReadVariableOp_1"
  op: "ReadVariableOp"
  input: "MobilenetV2/expanded_conv_1/depthwise/BatchNorm/moving_variance"
  input: "^MobilenetV2/expanded_conv_1/depthwise/BatchNorm/AssignMovingAvg_1/AssignSubVariableOp"
  attr {
    key: "_class"
    value {
      list {
        s: "loc:@MobilenetV2/expanded_conv_1/depthwise/BatchNorm/moving_variance"
      }
    }
  }
  attr {
    key: "dtype"
    value {
      type: DT_FLOAT
    }
  }
}
node {
  name: "MobilenetV2/expanded_conv_1/depthwise/Relu6"
  op: "Relu6"
  input: "MobilenetV2/expanded_conv_1/depthwise/BatchNorm/FusedBatchNormV3"
  attr {
    key: "T"
    value {
      type: DT_FLOAT
    }
  }
}
node {
  name: "MobilenetV2/expanded_conv_1/depthwise_output"
  op: "Identity"
  input: "MobilenetV2/expanded_conv_1/depthwise/Relu6"
  attr {
    key: "T"
    value {
      type: DT_FLOAT
    }
  }
}
node {
  name: "MobilenetV2/expanded_conv_1/project/weights/Initializer/truncated_normal/shape"
  op: "Const"
  attr {
    key: "_class"
    value {
      list {
        s: "loc:@MobilenetV2/expanded_conv_1/project/weights"
      }
    }
  }
  attr {
    key: "dtype"
    value {
      type: DT_INT32
    }
  }
  attr {
    key: "value"
    value {
      tensor {
        dtype: DT_INT32
        tensor_shape {
          dim {
            size: 4
          }
        }
        tensor_content: "\001\000\000\000\001\000\000\0000\000\000\000\010\000\000\000"
      }
    }
  }
}
node {
  name: "MobilenetV2/expanded_conv_1/project/weights/Initializer/truncated_normal/mean"
  op: "Const"
  attr {
    key: "_class"
    value {
      list {
        s: "loc:@MobilenetV2/expanded_conv_1/project/weights"
      }
    }
  }
  attr {
    key: "dtype"
    value {
      type: DT_FLOAT
    }
  }
  attr {
    key: "value"
    value {
      tensor {
        dtype: DT_FLOAT
        tensor_shape {
        }
        float_val: 0.0
      }
    }
  }
}
node {
  name: "MobilenetV2/expanded_conv_1/project/weights/Initializer/truncated_normal/stddev"
  op: "Const"
  attr {
    key: "_class"
    value {
      list {
        s: "loc:@MobilenetV2/expanded_conv_1/project/weights"
      }
    }
  }
  attr {
    key: "dtype"
    value {
      type: DT_FLOAT
    }
  }
  attr {
    key: "value"
    value {
      tensor {
        dtype: DT_FLOAT
        tensor_shape {
        }
        float_val: 0.09000000357627869
      }
    }
  }
}
node {
  name: "MobilenetV2/expanded_conv_1/project/weights/Initializer/truncated_normal/TruncatedNormal"
  op: "TruncatedNormal"
  input: "MobilenetV2/expanded_conv_1/project/weights/Initializer/truncated_normal/shape"
  attr {
    key: "T"
    value {
      type: DT_INT32
    }
  }
  attr {
    key: "_class"
    value {
      list {
        s: "loc:@MobilenetV2/expanded_conv_1/project/weights"
      }
    }
  }
  attr {
    key: "dtype"
    value {
      type: DT_FLOAT
    }
  }
  attr {
    key: "seed"
    value {
      i: 0
    }
  }
  attr {
    key: "seed2"
    value {
      i: 0
    }
  }
}
node {
  name: "MobilenetV2/expanded_conv_1/project/weights/Initializer/truncated_normal/mul"
  op: "Mul"
  input: "MobilenetV2/expanded_conv_1/project/weights/Initializer/truncated_normal/TruncatedNormal"
  input: "MobilenetV2/expanded_conv_1/project/weights/Initializer/truncated_normal/stddev"
  attr {
    key: "T"
    value {
      type: DT_FLOAT
    }
  }
  attr {
    key: "_class"
    value {
      list {
        s: "loc:@MobilenetV2/expanded_conv_1/project/weights"
      }
    }
  }
}
node {
  name: "MobilenetV2/expanded_conv_1/project/weights/Initializer/truncated_normal"
  op: "AddV2"
  input: "MobilenetV2/expanded_conv_1/project/weights/Initializer/truncated_normal/mul"
  input: "MobilenetV2/expanded_conv_1/project/weights/Initializer/truncated_normal/mean"
  attr {
    key: "T"
    value {
      type: DT_FLOAT
    }
  }
  attr {
    key: "_class"
    value {
      list {
        s: "loc:@MobilenetV2/expanded_conv_1/project/weights"
      }
    }
  }
}
node {
  name: "MobilenetV2/expanded_conv_1/project/weights"
  op: "VarHandleOp"
  attr {
    key: "_class"
    value {
      list {
        s: "loc:@MobilenetV2/expanded_conv_1/project/weights"
      }
    }
  }
  attr {
    key: "allowed_devices"
    value {
      list {
      }
    }
  }
  attr {
    key: "container"
    value {
      s: ""
    }
  }
  attr {
    key: "dtype"
    value {
      type: DT_FLOAT
    }
  }
  attr {
    key: "shape"
    value {
      shape {
        dim {
          size: 1
        }
        dim {
          size: 1
        }
        dim {
          size: 48
        }
        dim {
          size: 8
        }
      }
    }
  }
  attr {
    key: "shared_name"
    value {
      s: "MobilenetV2/expanded_conv_1/project/weights"
    }
  }
}
node {
  name: "MobilenetV2/expanded_conv_1/project/weights/IsInitialized/VarIsInitializedOp"
  op: "VarIsInitializedOp"
  input: "MobilenetV2/expanded_conv_1/project/weights"
}
node {
  name: "MobilenetV2/expanded_conv_1/project/weights/Assign"
  op: "AssignVariableOp"
  input: "MobilenetV2/expanded_conv_1/project/weights"
  input: "MobilenetV2/expanded_conv_1/project/weights/Initializer/truncated_normal"
  attr {
    key: "dtype"
    value {
      type: DT_FLOAT
    }
  }
  attr {
    key: "validate_shape"
    value {
      b: false
    }
  }
}
node {
  name: "MobilenetV2/expanded_conv_1/project/weights/Read/ReadVariableOp"
  op: "ReadVariableOp"
  input: "MobilenetV2/expanded_conv_1/project/weights"
  attr {
    key: "dtype"
    value {
      type: DT_FLOAT
    }
  }
}
node {
  name: "MobilenetV2/expanded_conv_1/project/kernel/Regularizer/Square/ReadVariableOp"
  op: "ReadVariableOp"
  input: "MobilenetV2/expanded_conv_1/project/weights"
  attr {
    key: "dtype"
    value {
      type: DT_FLOAT
    }
  }
}
node {
  name: "MobilenetV2/expanded_conv_1/project/kernel/Regularizer/Square"
  op: "Square"
  input: "MobilenetV2/expanded_conv_1/project/kernel/Regularizer/Square/ReadVariableOp"
  attr {
    key: "T"
    value {
      type: DT_FLOAT
    }
  }
}
node {
  name: "MobilenetV2/expanded_conv_1/project/kernel/Regularizer/Const"
  op: "Const"
  attr {
    key: "dtype"
    value {
      type: DT_INT32
    }
  }
  attr {
    key: "value"
    value {
      tensor {
        dtype: DT_INT32
        tensor_shape {
          dim {
            size: 4
          }
        }
        tensor_content: "\000\000\000\000\001\000\000\000\002\000\000\000\003\000\000\000"
      }
    }
  }
}
node {
  name: "MobilenetV2/expanded_conv_1/project/kernel/Regularizer/Sum"
  op: "Sum"
  input: "MobilenetV2/expanded_conv_1/project/kernel/Regularizer/Square"
  input: "MobilenetV2/expanded_conv_1/project/kernel/Regularizer/Const"
  attr {
    key: "T"
    value {
      type: DT_FLOAT
    }
  }
  attr {
    key: "Tidx"
    value {
      type: DT_INT32
    }
  }
  attr {
    key: "keep_dims"
    value {
      b: false
    }
  }
}
node {
  name: "MobilenetV2/expanded_conv_1/project/kernel/Regularizer/mul/x"
  op: "Const"
  attr {
    key: "dtype"
    value {
      type: DT_FLOAT
    }
  }
  attr {
    key: "value"
    value {
      tensor {
        dtype: DT_FLOAT
        tensor_shape {
        }
        float_val: 1.9999999494757503e-05
      }
    }
  }
}
node {
  name: "MobilenetV2/expanded_conv_1/project/kernel/Regularizer/mul"
  op: "Mul"
  input: "MobilenetV2/expanded_conv_1/project/kernel/Regularizer/mul/x"
  input: "MobilenetV2/expanded_conv_1/project/kernel/Regularizer/Sum"
  attr {
    key: "T"
    value {
      type: DT_FLOAT
    }
  }
}
node {
  name: "MobilenetV2/expanded_conv_1/project/Conv2D/ReadVariableOp"
  op: "ReadVariableOp"
  input: "MobilenetV2/expanded_conv_1/project/weights"
  attr {
    key: "dtype"
    value {
      type: DT_FLOAT
    }
  }
}
node {
  name: "MobilenetV2/expanded_conv_1/project/Conv2D"
  op: "Conv2D"
  input: "MobilenetV2/expanded_conv_1/depthwise_output"
  input: "MobilenetV2/expanded_conv_1/project/Conv2D/ReadVariableOp"
  attr {
    key: "T"
    value {
      type: DT_FLOAT
    }
  }
  attr {
    key: "data_format"
    value {
      s: "NHWC"
    }
  }
  attr {
    key: "dilations"
    value {
      list {
        i: 1
        i: 1
        i: 1
        i: 1
      }
    }
  }
  attr {
    key: "explicit_paddings"
    value {
      list {
      }
    }
  }
  attr {
    key: "padding"
    value {
      s: "SAME"
    }
  }
  attr {
    key: "strides"
    value {
      list {
        i: 1
        i: 1
        i: 1
        i: 1
      }
    }
  }
  attr {
    key: "use_cudnn_on_gpu"
    value {
      b: true
    }
  }
}
node {
  name: "MobilenetV2/expanded_conv_1/project/BatchNorm/gamma/Initializer/ones"
  op: "Const"
  attr {
    key: "_class"
    value {
      list {
        s: "loc:@MobilenetV2/expanded_conv_1/project/BatchNorm/gamma"
      }
    }
  }
  attr {
    key: "dtype"
    value {
      type: DT_FLOAT
    }
  }
  attr {
    key: "value"
    value {
      tensor {
        dtype: DT_FLOAT
        tensor_shape {
          dim {
            size: 8
          }
        }
        float_val: 1.0
      }
    }
  }
}
node {
  name: "MobilenetV2/expanded_conv_1/project/BatchNorm/gamma"
  op: "VarHandleOp"
  attr {
    key: "_class"
    value {
      list {
        s: "loc:@MobilenetV2/expanded_conv_1/project/BatchNorm/gamma"
      }
    }
  }
  attr {
    key: "allowed_devices"
    value {
      list {
      }
    }
  }
  attr {
    key: "container"
    value {
      s: ""
    }
  }
  attr {
    key: "dtype"
    value {
      type: DT_FLOAT
    }
  }
  attr {
    key: "shape"
    value {
      shape {
        dim {
          size: 8
        }
      }
    }
  }
  attr {
    key: "shared_name"
    value {
      s: "MobilenetV2/expanded_conv_1/project/BatchNorm/gamma"
    }
  }
}
node {
  name: "MobilenetV2/expanded_conv_1/project/BatchNorm/gamma/IsInitialized/VarIsInitializedOp"
  op: "VarIsInitializedOp"
  input: "MobilenetV2/expanded_conv_1/project/BatchNorm/gamma"
}
node {
  name: "MobilenetV2/expanded_conv_1/project/BatchNorm/gamma/Assign"
  op: "AssignVariableOp"
  input: "MobilenetV2/expanded_conv_1/project/BatchNorm/gamma"
  input: "MobilenetV2/expanded_conv_1/project/BatchNorm/gamma/Initializer/ones"
  attr {
    key: "dtype"
    value {
      type: DT_FLOAT
    }
  }
  attr {
    key: "validate_shape"
    value {
      b: false
    }
  }
}
node {
  name: "MobilenetV2/expanded_conv_1/project/BatchNorm/gamma/Read/ReadVariableOp"
  op: "ReadVariableOp"
  input: "MobilenetV2/expanded_conv_1/project/BatchNorm/gamma"
  attr {
    key: "dtype"
    value {
      type: DT_FLOAT
    }
  }
}
node {
  name: "MobilenetV2/expanded_conv_1/project/BatchNorm/beta/Initializer/zeros"
  op: "Const"
  attr {
    key: "_class"
    value {
      list {
        s: "loc:@MobilenetV2/expanded_conv_1/project/BatchNorm/beta"
      }
    }
  }
  attr {
    key: "dtype"
    value {
      type: DT_FLOAT
    }
  }
  attr {
    key: "value"
    value {
      tensor {
        dtype: DT_FLOAT
        tensor_shape {
          dim {
            size: 8
          }
        }
        float_val: 0.0
      }
    }
  }
}
node {
  name: "MobilenetV2/expanded_conv_1/project/BatchNorm/beta"
  op: "VarHandleOp"
  attr {
    key: "_class"
    value {
      list {
        s: "loc:@MobilenetV2/expanded_conv_1/project/BatchNorm/beta"
      }
    }
  }
  attr {
    key: "allowed_devices"
    value {
      list {
      }
    }
  }
  attr {
    key: "container"
    value {
      s: ""
    }
  }
  attr {
    key: "dtype"
    value {
      type: DT_FLOAT
    }
  }
  attr {
    key: "shape"
    value {
      shape {
        dim {
          size: 8
        }
      }
    }
  }
  attr {
    key: "shared_name"
    value {
      s: "MobilenetV2/expanded_conv_1/project/BatchNorm/beta"
    }
  }
}
node {
  name: "MobilenetV2/expanded_conv_1/project/BatchNorm/beta/IsInitialized/VarIsInitializedOp"
  op: "VarIsInitializedOp"
  input: "MobilenetV2/expanded_conv_1/project/BatchNorm/beta"
}
node {
  name: "MobilenetV2/expanded_conv_1/project/BatchNorm/beta/Assign"
  op: "AssignVariableOp"
  input: "MobilenetV2/expanded_conv_1/project/BatchNorm/beta"
  input: "MobilenetV2/expanded_conv_1/project/BatchNorm/beta/Initializer/zeros"
  attr {
    key: "dtype"
    value {
      type: DT_FLOAT
    }
  }
  attr {
    key: "validate_shape"
    value {
      b: false
    }
  }
}
node {
  name: "MobilenetV2/expanded_conv_1/project/BatchNorm/beta/Read/ReadVariableOp"
  op: "ReadVariableOp"
  input: "MobilenetV2/expanded_conv_1/project/BatchNorm/beta"
  attr {
    key: "dtype"
    value {
      type: DT_FLOAT
    }
  }
}
node {
  name: "MobilenetV2/expanded_conv_1/project/BatchNorm/moving_mean/Initializer/zeros"
  op: "Const"
  attr {
    key: "_class"
    value {
      list {
        s: "loc:@MobilenetV2/expanded_conv_1/project/BatchNorm/moving_mean"
      }
    }
  }
  attr {
    key: "dtype"
    value {
      type: DT_FLOAT
    }
  }
  attr {
    key: "value"
    value {
      tensor {
        dtype: DT_FLOAT
        tensor_shape {
          dim {
            size: 8
          }
        }
        float_val: 0.0
      }
    }
  }
}
node {
  name: "MobilenetV2/expanded_conv_1/project/BatchNorm/moving_mean"
  op: "VarHandleOp"
  attr {
    key: "_class"
    value {
      list {
        s: "loc:@MobilenetV2/expanded_conv_1/project/BatchNorm/moving_mean"
      }
    }
  }
  attr {
    key: "allowed_devices"
    value {
      list {
      }
    }
  }
  attr {
    key: "container"
    value {
      s: ""
    }
  }
  attr {
    key: "dtype"
    value {
      type: DT_FLOAT
    }
  }
  attr {
    key: "shape"
    value {
      shape {
        dim {
          size: 8
        }
      }
    }
  }
  attr {
    key: "shared_name"
    value {
      s: "MobilenetV2/expanded_conv_1/project/BatchNorm/moving_mean"
    }
  }
}
node {
  name: "MobilenetV2/expanded_conv_1/project/BatchNorm/moving_mean/IsInitialized/VarIsInitializedOp"
  op: "VarIsInitializedOp"
  input: "MobilenetV2/expanded_conv_1/project/BatchNorm/moving_mean"
}
node {
  name: "MobilenetV2/expanded_conv_1/project/BatchNorm/moving_mean/Assign"
  op: "AssignVariableOp"
  input: "MobilenetV2/expanded_conv_1/project/BatchNorm/moving_mean"
  input: "MobilenetV2/expanded_conv_1/project/BatchNorm/moving_mean/Initializer/zeros"
  attr {
    key: "dtype"
    value {
      type: DT_FLOAT
    }
  }
  attr {
    key: "validate_shape"
    value {
      b: false
    }
  }
}
node {
  name: "MobilenetV2/expanded_conv_1/project/BatchNorm/moving_mean/Read/ReadVariableOp"
  op: "ReadVariableOp"
  input: "MobilenetV2/expanded_conv_1/project/BatchNorm/moving_mean"
  attr {
    key: "dtype"
    value {
      type: DT_FLOAT
    }
  }
}
node {
  name: "MobilenetV2/expanded_conv_1/project/BatchNorm/moving_variance/Initializer/ones"
  op: "Const"
  attr {
    key: "_class"
    value {
      list {
        s: "loc:@MobilenetV2/expanded_conv_1/project/BatchNorm/moving_variance"
      }
    }
  }
  attr {
    key: "dtype"
    value {
      type: DT_FLOAT
    }
  }
  attr {
    key: "value"
    value {
      tensor {
        dtype: DT_FLOAT
        tensor_shape {
          dim {
            size: 8
          }
        }
        float_val: 1.0
      }
    }
  }
}
node {
  name: "MobilenetV2/expanded_conv_1/project/BatchNorm/moving_variance"
  op: "VarHandleOp"
  attr {
    key: "_class"
    value {
      list {
        s: "loc:@MobilenetV2/expanded_conv_1/project/BatchNorm/moving_variance"
      }
    }
  }
  attr {
    key: "allowed_devices"
    value {
      list {
      }
    }
  }
  attr {
    key: "container"
    value {
      s: ""
    }
  }
  attr {
    key: "dtype"
    value {
      type: DT_FLOAT
    }
  }
  attr {
    key: "shape"
    value {
      shape {
        dim {
          size: 8
        }
      }
    }
  }
  attr {
    key: "shared_name"
    value {
      s: "MobilenetV2/expanded_conv_1/project/BatchNorm/moving_variance"
    }
  }
}
node {
  name: "MobilenetV2/expanded_conv_1/project/BatchNorm/moving_variance/IsInitialized/VarIsInitializedOp"
  op: "VarIsInitializedOp"
  input: "MobilenetV2/expanded_conv_1/project/BatchNorm/moving_variance"
}
node {
  name: "MobilenetV2/expanded_conv_1/project/BatchNorm/moving_variance/Assign"
  op: "AssignVariableOp"
  input: "MobilenetV2/expanded_conv_1/project/BatchNorm/moving_variance"
  input: "MobilenetV2/expanded_conv_1/project/BatchNorm/moving_variance/Initializer/ones"
  attr {
    key: "dtype"
    value {
      type: DT_FLOAT
    }
  }
  attr {
    key: "validate_shape"
    value {
      b: false
    }
  }
}
node {
  name: "MobilenetV2/expanded_conv_1/project/BatchNorm/moving_variance/Read/ReadVariableOp"
  op: "ReadVariableOp"
  input: "MobilenetV2/expanded_conv_1/project/BatchNorm/moving_variance"
  attr {
    key: "dtype"
    value {
      type: DT_FLOAT
    }
  }
}
node {
  name: "MobilenetV2/expanded_conv_1/project/BatchNorm/ReadVariableOp"
  op: "ReadVariableOp"
  input: "MobilenetV2/expanded_conv_1/project/BatchNorm/gamma"
  attr {
    key: "dtype"
    value {
      type: DT_FLOAT
    }
  }
}
node {
  name: "MobilenetV2/expanded_conv_1/project/BatchNorm/ReadVariableOp_1"
  op: "ReadVariableOp"
  input: "MobilenetV2/expanded_conv_1/project/BatchNorm/beta"
  attr {
    key: "dtype"
    value {
      type: DT_FLOAT
    }
  }
}
node {
  name: "MobilenetV2/expanded_conv_1/project/BatchNorm/FusedBatchNormV3/ReadVariableOp"
  op: "ReadVariableOp"
  input: "MobilenetV2/expanded_conv_1/project/BatchNorm/moving_mean"
  attr {
    key: "dtype"
    value {
      type: DT_FLOAT
    }
  }
}
node {
  name: "MobilenetV2/expanded_conv_1/project/BatchNorm/FusedBatchNormV3/ReadVariableOp_1"
  op: "ReadVariableOp"
  input: "MobilenetV2/expanded_conv_1/project/BatchNorm/moving_variance"
  attr {
    key: "dtype"
    value {
      type: DT_FLOAT
    }
  }
}
node {
  name: "MobilenetV2/expanded_conv_1/project/BatchNorm/FusedBatchNormV3"
  op: "FusedBatchNormV3"
  input: "MobilenetV2/expanded_conv_1/project/Conv2D"
  input: "MobilenetV2/expanded_conv_1/project/BatchNorm/ReadVariableOp"
  input: "MobilenetV2/expanded_conv_1/project/BatchNorm/ReadVariableOp_1"
  input: "MobilenetV2/expanded_conv_1/project/BatchNorm/FusedBatchNormV3/ReadVariableOp"
  input: "MobilenetV2/expanded_conv_1/project/BatchNorm/FusedBatchNormV3/ReadVariableOp_1"
  attr {
    key: "T"
    value {
      type: DT_FLOAT
    }
  }
  attr {
    key: "U"
    value {
      type: DT_FLOAT
    }
  }
  attr {
    key: "data_format"
    value {
      s: "NHWC"
    }
  }
  attr {
    key: "epsilon"
    value {
      f: 0.0010000000474974513
    }
  }
  attr {
    key: "exponential_avg_factor"
    value {
      f: 1.0
    }
  }
  attr {
    key: "is_training"
    value {
      b: true
    }
  }
}
node {
  name: "MobilenetV2/expanded_conv_1/project/BatchNorm/Const"
  op: "Const"
  attr {
    key: "dtype"
    value {
      type: DT_FLOAT
    }
  }
  attr {
    key: "value"
    value {
      tensor {
        dtype: DT_FLOAT
        tensor_shape {
        }
        float_val: 0.996999979019165
      }
    }
  }
}
node {
  name: "MobilenetV2/expanded_conv_1/project/BatchNorm/AssignMovingAvg/sub/x"
  op: "Const"
  attr {
    key: "_class"
    value {
      list {
        s: "loc:@MobilenetV2/expanded_conv_1/project/BatchNorm/moving_mean"
      }
    }
  }
  attr {
    key: "dtype"
    value {
      type: DT_FLOAT
    }
  }
  attr {
    key: "value"
    value {
      tensor {
        dtype: DT_FLOAT
        tensor_shape {
        }
        float_val: 1.0
      }
    }
  }
}
node {
  name: "MobilenetV2/expanded_conv_1/project/BatchNorm/AssignMovingAvg/sub"
  op: "Sub"
  input: "MobilenetV2/expanded_conv_1/project/BatchNorm/AssignMovingAvg/sub/x"
  input: "MobilenetV2/expanded_conv_1/project/BatchNorm/Const"
  attr {
    key: "T"
    value {
      type: DT_FLOAT
    }
  }
  attr {
    key: "_class"
    value {
      list {
        s: "loc:@MobilenetV2/expanded_conv_1/project/BatchNorm/moving_mean"
      }
    }
  }
}
node {
  name: "MobilenetV2/expanded_conv_1/project/BatchNorm/AssignMovingAvg/ReadVariableOp"
  op: "ReadVariableOp"
  input: "MobilenetV2/expanded_conv_1/project/BatchNorm/moving_mean"
  attr {
    key: "dtype"
    value {
      type: DT_FLOAT
    }
  }
}
node {
  name: "MobilenetV2/expanded_conv_1/project/BatchNorm/AssignMovingAvg/sub_1"
  op: "Sub"
  input: "MobilenetV2/expanded_conv_1/project/BatchNorm/AssignMovingAvg/ReadVariableOp"
  input: "MobilenetV2/expanded_conv_1/project/BatchNorm/FusedBatchNormV3:1"
  attr {
    key: "T"
    value {
      type: DT_FLOAT
    }
  }
  attr {
    key: "_class"
    value {
      list {
        s: "loc:@MobilenetV2/expanded_conv_1/project/BatchNorm/moving_mean"
      }
    }
  }
}
node {
  name: "MobilenetV2/expanded_conv_1/project/BatchNorm/AssignMovingAvg/mul"
  op: "Mul"
  input: "MobilenetV2/expanded_conv_1/project/BatchNorm/AssignMovingAvg/sub_1"
  input: "MobilenetV2/expanded_conv_1/project/BatchNorm/AssignMovingAvg/sub"
  attr {
    key: "T"
    value {
      type: DT_FLOAT
    }
  }
  attr {
    key: "_class"
    value {
      list {
        s: "loc:@MobilenetV2/expanded_conv_1/project/BatchNorm/moving_mean"
      }
    }
  }
}
node {
  name: "MobilenetV2/expanded_conv_1/project/BatchNorm/AssignMovingAvg/AssignSubVariableOp"
  op: "AssignSubVariableOp"
  input: "MobilenetV2/expanded_conv_1/project/BatchNorm/moving_mean"
  input: "MobilenetV2/expanded_conv_1/project/BatchNorm/AssignMovingAvg/mul"
  attr {
    key: "_class"
    value {
      list {
        s: "loc:@MobilenetV2/expanded_conv_1/project/BatchNorm/moving_mean"
      }
    }
  }
  attr {
    key: "dtype"
    value {
      type: DT_FLOAT
    }
  }
}
node {
  name: "MobilenetV2/expanded_conv_1/project/BatchNorm/AssignMovingAvg/ReadVariableOp_1"
  op: "ReadVariableOp"
  input: "MobilenetV2/expanded_conv_1/project/BatchNorm/moving_mean"
  input: "^MobilenetV2/expanded_conv_1/project/BatchNorm/AssignMovingAvg/AssignSubVariableOp"
  attr {
    key: "_class"
    value {
      list {
        s: "loc:@MobilenetV2/expanded_conv_1/project/BatchNorm/moving_mean"
      }
    }
  }
  attr {
    key: "dtype"
    value {
      type: DT_FLOAT
    }
  }
}
node {
  name: "MobilenetV2/expanded_conv_1/project/BatchNorm/AssignMovingAvg_1/sub/x"
  op: "Const"
  attr {
    key: "_class"
    value {
      list {
        s: "loc:@MobilenetV2/expanded_conv_1/project/BatchNorm/moving_variance"
      }
    }
  }
  attr {
    key: "dtype"
    value {
      type: DT_FLOAT
    }
  }
  attr {
    key: "value"
    value {
      tensor {
        dtype: DT_FLOAT
        tensor_shape {
        }
        float_val: 1.0
      }
    }
  }
}
node {
  name: "MobilenetV2/expanded_conv_1/project/BatchNorm/AssignMovingAvg_1/sub"
  op: "Sub"
  input: "MobilenetV2/expanded_conv_1/project/BatchNorm/AssignMovingAvg_1/sub/x"
  input: "MobilenetV2/expanded_conv_1/project/BatchNorm/Const"
  attr {
    key: "T"
    value {
      type: DT_FLOAT
    }
  }
  attr {
    key: "_class"
    value {
      list {
        s: "loc:@MobilenetV2/expanded_conv_1/project/BatchNorm/moving_variance"
      }
    }
  }
}
node {
  name: "MobilenetV2/expanded_conv_1/project/BatchNorm/AssignMovingAvg_1/ReadVariableOp"
  op: "ReadVariableOp"
  input: "MobilenetV2/expanded_conv_1/project/BatchNorm/moving_variance"
  attr {
    key: "dtype"
    value {
      type: DT_FLOAT
    }
  }
}
node {
  name: "MobilenetV2/expanded_conv_1/project/BatchNorm/AssignMovingAvg_1/sub_1"
  op: "Sub"
  input: "MobilenetV2/expanded_conv_1/project/BatchNorm/AssignMovingAvg_1/ReadVariableOp"
  input: "MobilenetV2/expanded_conv_1/project/BatchNorm/FusedBatchNormV3:2"
  attr {
    key: "T"
    value {
      type: DT_FLOAT
    }
  }
  attr {
    key: "_class"
    value {
      list {
        s: "loc:@MobilenetV2/expanded_conv_1/project/BatchNorm/moving_variance"
      }
    }
  }
}
node {
  name: "MobilenetV2/expanded_conv_1/project/BatchNorm/AssignMovingAvg_1/mul"
  op: "Mul"
  input: "MobilenetV2/expanded_conv_1/project/BatchNorm/AssignMovingAvg_1/sub_1"
  input: "MobilenetV2/expanded_conv_1/project/BatchNorm/AssignMovingAvg_1/sub"
  attr {
    key: "T"
    value {
      type: DT_FLOAT
    }
  }
  attr {
    key: "_class"
    value {
      list {
        s: "loc:@MobilenetV2/expanded_conv_1/project/BatchNorm/moving_variance"
      }
    }
  }
}
node {
  name: "MobilenetV2/expanded_conv_1/project/BatchNorm/AssignMovingAvg_1/AssignSubVariableOp"
  op: "AssignSubVariableOp"
  input: "MobilenetV2/expanded_conv_1/project/BatchNorm/moving_variance"
  input: "MobilenetV2/expanded_conv_1/project/BatchNorm/AssignMovingAvg_1/mul"
  attr {
    key: "_class"
    value {
      list {
        s: "loc:@MobilenetV2/expanded_conv_1/project/BatchNorm/moving_variance"
      }
    }
  }
  attr {
    key: "dtype"
    value {
      type: DT_FLOAT
    }
  }
}
node {
  name: "MobilenetV2/expanded_conv_1/project/BatchNorm/AssignMovingAvg_1/ReadVariableOp_1"
  op: "ReadVariableOp"
  input: "MobilenetV2/expanded_conv_1/project/BatchNorm/moving_variance"
  input: "^MobilenetV2/expanded_conv_1/project/BatchNorm/AssignMovingAvg_1/AssignSubVariableOp"
  attr {
    key: "_class"
    value {
      list {
        s: "loc:@MobilenetV2/expanded_conv_1/project/BatchNorm/moving_variance"
      }
    }
  }
  attr {
    key: "dtype"
    value {
      type: DT_FLOAT
    }
  }
}
node {
  name: "MobilenetV2/expanded_conv_1/project/Identity"
  op: "Identity"
  input: "MobilenetV2/expanded_conv_1/project/BatchNorm/FusedBatchNormV3"
  attr {
    key: "T"
    value {
      type: DT_FLOAT
    }
  }
}
node {
  name: "MobilenetV2/expanded_conv_1/output"
  op: "Identity"
  input: "MobilenetV2/expanded_conv_1/project/Identity"
  attr {
    key: "T"
    value {
      type: DT_FLOAT
    }
  }
}
node {
  name: "MobilenetV2/expanded_conv_2/input"
  op: "Identity"
  input: "MobilenetV2/expanded_conv_1/output"
  attr {
    key: "T"
    value {
      type: DT_FLOAT
    }
  }
}
node {
  name: "MobilenetV2/expanded_conv_2/expand/weights/Initializer/truncated_normal/shape"
  op: "Const"
  attr {
    key: "_class"
    value {
      list {
        s: "loc:@MobilenetV2/expanded_conv_2/expand/weights"
      }
    }
  }
  attr {
    key: "dtype"
    value {
      type: DT_INT32
    }
  }
  attr {
    key: "value"
    value {
      tensor {
        dtype: DT_INT32
        tensor_shape {
          dim {
            size: 4
          }
        }
        tensor_content: "\001\000\000\000\001\000\000\000\010\000\000\0000\000\000\000"
      }
    }
  }
}
node {
  name: "MobilenetV2/expanded_conv_2/expand/weights/Initializer/truncated_normal/mean"
  op: "Const"
  attr {
    key: "_class"
    value {
      list {
        s: "loc:@MobilenetV2/expanded_conv_2/expand/weights"
      }
    }
  }
  attr {
    key: "dtype"
    value {
      type: DT_FLOAT
    }
  }
  attr {
    key: "value"
    value {
      tensor {
        dtype: DT_FLOAT
        tensor_shape {
        }
        float_val: 0.0
      }
    }
  }
}
node {
  name: "MobilenetV2/expanded_conv_2/expand/weights/Initializer/truncated_normal/stddev"
  op: "Const"
  attr {
    key: "_class"
    value {
      list {
        s: "loc:@MobilenetV2/expanded_conv_2/expand/weights"
      }
    }
  }
  attr {
    key: "dtype"
    value {
      type: DT_FLOAT
    }
  }
  attr {
    key: "value"
    value {
      tensor {
        dtype: DT_FLOAT
        tensor_shape {
        }
        float_val: 0.09000000357627869
      }
    }
  }
}
node {
  name: "MobilenetV2/expanded_conv_2/expand/weights/Initializer/truncated_normal/TruncatedNormal"
  op: "TruncatedNormal"
  input: "MobilenetV2/expanded_conv_2/expand/weights/Initializer/truncated_normal/shape"
  attr {
    key: "T"
    value {
      type: DT_INT32
    }
  }
  attr {
    key: "_class"
    value {
      list {
        s: "loc:@MobilenetV2/expanded_conv_2/expand/weights"
      }
    }
  }
  attr {
    key: "dtype"
    value {
      type: DT_FLOAT
    }
  }
  attr {
    key: "seed"
    value {
      i: 0
    }
  }
  attr {
    key: "seed2"
    value {
      i: 0
    }
  }
}
node {
  name: "MobilenetV2/expanded_conv_2/expand/weights/Initializer/truncated_normal/mul"
  op: "Mul"
  input: "MobilenetV2/expanded_conv_2/expand/weights/Initializer/truncated_normal/TruncatedNormal"
  input: "MobilenetV2/expanded_conv_2/expand/weights/Initializer/truncated_normal/stddev"
  attr {
    key: "T"
    value {
      type: DT_FLOAT
    }
  }
  attr {
    key: "_class"
    value {
      list {
        s: "loc:@MobilenetV2/expanded_conv_2/expand/weights"
      }
    }
  }
}
node {
  name: "MobilenetV2/expanded_conv_2/expand/weights/Initializer/truncated_normal"
  op: "AddV2"
  input: "MobilenetV2/expanded_conv_2/expand/weights/Initializer/truncated_normal/mul"
  input: "MobilenetV2/expanded_conv_2/expand/weights/Initializer/truncated_normal/mean"
  attr {
    key: "T"
    value {
      type: DT_FLOAT
    }
  }
  attr {
    key: "_class"
    value {
      list {
        s: "loc:@MobilenetV2/expanded_conv_2/expand/weights"
      }
    }
  }
}
node {
  name: "MobilenetV2/expanded_conv_2/expand/weights"
  op: "VarHandleOp"
  attr {
    key: "_class"
    value {
      list {
        s: "loc:@MobilenetV2/expanded_conv_2/expand/weights"
      }
    }
  }
  attr {
    key: "allowed_devices"
    value {
      list {
      }
    }
  }
  attr {
    key: "container"
    value {
      s: ""
    }
  }
  attr {
    key: "dtype"
    value {
      type: DT_FLOAT
    }
  }
  attr {
    key: "shape"
    value {
      shape {
        dim {
          size: 1
        }
        dim {
          size: 1
        }
        dim {
          size: 8
        }
        dim {
          size: 48
        }
      }
    }
  }
  attr {
    key: "shared_name"
    value {
      s: "MobilenetV2/expanded_conv_2/expand/weights"
    }
  }
}
node {
  name: "MobilenetV2/expanded_conv_2/expand/weights/IsInitialized/VarIsInitializedOp"
  op: "VarIsInitializedOp"
  input: "MobilenetV2/expanded_conv_2/expand/weights"
}
node {
  name: "MobilenetV2/expanded_conv_2/expand/weights/Assign"
  op: "AssignVariableOp"
  input: "MobilenetV2/expanded_conv_2/expand/weights"
  input: "MobilenetV2/expanded_conv_2/expand/weights/Initializer/truncated_normal"
  attr {
    key: "dtype"
    value {
      type: DT_FLOAT
    }
  }
  attr {
    key: "validate_shape"
    value {
      b: false
    }
  }
}
node {
  name: "MobilenetV2/expanded_conv_2/expand/weights/Read/ReadVariableOp"
  op: "ReadVariableOp"
  input: "MobilenetV2/expanded_conv_2/expand/weights"
  attr {
    key: "dtype"
    value {
      type: DT_FLOAT
    }
  }
}
node {
  name: "MobilenetV2/expanded_conv_2/expand/kernel/Regularizer/Square/ReadVariableOp"
  op: "ReadVariableOp"
…
  input: "save/RestoreV2:218"
  attr {
    key: "T"
    value {
      type: DT_FLOAT
    }
  }
}
node {
  name: "save/AssignVariableOp_218"
  op: "AssignVariableOp"
  input: "MobilenetV2/expanded_conv_7/depthwise/BatchNorm/moving_variance"
  input: "save/Identity_218"
  attr {
    key: "dtype"
    value {
      type: DT_FLOAT
    }
  }
  attr {
    key: "validate_shape"
    value {
      b: false
    }
  }
}
node {
  name: "save/Identity_219"
  op: "Identity"
  input: "save/RestoreV2:219"
  attr {
    key: "T"
    value {
      type: DT_FLOAT
    }
  }
}
node {
  name: "save/AssignVariableOp_219"
  op: "AssignVariableOp"
  input: "MobilenetV2/expanded_conv_7/depthwise/depthwise_weights"
  input: "save/Identity_219"
  attr {
    key: "dtype"
    value {
      type: DT_FLOAT
    }
  }
  attr {
    key: "validate_shape"
    value {
      b: false
    }
  }
}
node {
  name: "save/Identity_220"
  op: "Identity"
  input: "save/RestoreV2:220"
  attr {
    key: "T"
    value {
      type: DT_FLOAT
    }
  }
}
node {
  name: "save/AssignVariableOp_220"
  op: "AssignVariableOp"
  input: "MobilenetV2/expanded_conv_7/expand/BatchNorm/beta"
  input: "save/Identity_220"
  attr {
    key: "dtype"
    value {
      type: DT_FLOAT
    }
  }
  attr {
    key: "validate_shape"
    value {
      b: false
    }
  }
}
node {
  name: "save/Identity_221"
  op: "Identity"
  input: "save/RestoreV2:221"
  attr {
    key: "T"
    value {
      type: DT_FLOAT
    }
  }
}
node {
  name: "save/AssignVariableOp_221"
  op: "AssignVariableOp"
  input: "MobilenetV2/expanded_conv_7/expand/BatchNorm/gamma"
  input: "save/Identity_221"
  attr {
    key: "dtype"
    value {
      type: DT_FLOAT
    }
  }
  attr {
    key: "validate_shape"
    value {
      b: false
    }
  }
}
node {
  name: "save/Identity_222"
  op: "Identity"
  input: "save/RestoreV2:222"
  attr {
    key: "T"
    value {
      type: DT_FLOAT
    }
  }
}
node {
  name: "save/AssignVariableOp_222"
  op: "AssignVariableOp"
  input: "MobilenetV2/expanded_conv_7/expand/BatchNorm/moving_mean"
  input: "save/Identity_222"
  attr {
    key: "dtype"
    value {
      type: DT_FLOAT
    }
  }
  attr {
    key: "validate_shape"
    value {
      b: false
    }
  }
}
node {
  name: "save/Identity_223"
  op: "Identity"
  input: "save/RestoreV2:223"
  attr {
    key: "T"
    value {
      type: DT_FLOAT
    }
  }
}
node {
  name: "save/AssignVariableOp_223"
  op: "AssignVariableOp"
  input: "MobilenetV2/expanded_conv_7/expand/BatchNorm/moving_variance"
  input: "save/Identity_223"
  attr {
    key: "dtype"
    value {
      type: DT_FLOAT
    }
  }
  attr {
    key: "validate_shape"
    value {
      b: false
    }
  }
}
node {
  name: "save/Identity_224"
  op: "Identity"
  input: "save/RestoreV2:224"
  attr {
    key: "T"
    value {
      type: DT_FLOAT
    }
  }
}
node {
  name: "save/AssignVariableOp_224"
  op: "AssignVariableOp"
  input: "MobilenetV2/expanded_conv_7/expand/weights"
  input: "save/Identity_224"
  attr {
    key: "dtype"
    value {
      type: DT_FLOAT
    }
  }
  attr {
    key: "validate_shape"
    value {
      b: false
    }
  }
}
node {
  name: "save/Identity_225"
  op: "Identity"
  input: "save/RestoreV2:225"
  attr {
    key: "T"
    value {
      type: DT_FLOAT
    }
  }
}
node {
  name: "save/AssignVariableOp_225"
  op: "AssignVariableOp"
  input: "MobilenetV2/expanded_conv_7/project/BatchNorm/beta"
  input: "save/Identity_225"
  attr {
    key: "dtype"
    value {
      type: DT_FLOAT
    }
  }
  attr {
    key: "validate_shape"
    value {
      b: false
    }
  }
}
node {
  name: "save/Identity_226"
  op: "Identity"
  input: "save/RestoreV2:226"
  attr {
    key: "T"
    value {
      type: DT_FLOAT
    }
  }
}
node {
  name: "save/AssignVariableOp_226"
  op: "AssignVariableOp"
  input: "MobilenetV2/expanded_conv_7/project/BatchNorm/gamma"
  input: "save/Identity_226"
  attr {
    key: "dtype"
    value {
      type: DT_FLOAT
    }
  }
  attr {
    key: "validate_shape"
    value {
      b: false
    }
  }
}
node {
  name: "save/Identity_227"
  op: "Identity"
  input: "save/RestoreV2:227"
  attr {
    key: "T"
    value {
      type: DT_FLOAT
    }
  }
}
node {
  name: "save/AssignVariableOp_227"
  op: "AssignVariableOp"
  input: "MobilenetV2/expanded_conv_7/project/BatchNorm/moving_mean"
  input: "save/Identity_227"
  attr {
    key: "dtype"
    value {
      type: DT_FLOAT
    }
  }
  attr {
    key: "validate_shape"
    value {
      b: false
    }
  }
}
node {
  name: "save/Identity_228"
  op: "Identity"
  input: "save/RestoreV2:228"
  attr {
    key: "T"
    value {
      type: DT_FLOAT
    }
  }
}
node {
  name: "save/AssignVariableOp_228"
  op: "AssignVariableOp"
  input: "MobilenetV2/expanded_conv_7/project/BatchNorm/moving_variance"
  input: "save/Identity_228"
  attr {
    key: "dtype"
    value {
      type: DT_FLOAT
    }
  }
  attr {
    key: "validate_shape"
    value {
      b: false
    }
  }
}
node {
  name: "save/Identity_229"
  op: "Identity"
  input: "save/RestoreV2:229"
  attr {
    key: "T"
    value {
      type: DT_FLOAT
    }
  }
}
node {
  name: "save/AssignVariableOp_229"
  op: "AssignVariableOp"
  input: "MobilenetV2/expanded_conv_7/project/weights"
  input: "save/Identity_229"
  attr {
    key: "dtype"
    value {
      type: DT_FLOAT
    }
  }
  attr {
    key: "validate_shape"
    value {
      b: false
    }
  }
}
node {
  name: "save/Identity_230"
  op: "Identity"
  input: "save/RestoreV2:230"
  attr {
    key: "T"
    value {
      type: DT_FLOAT
    }
  }
}
node {
  name: "save/AssignVariableOp_230"
  op: "AssignVariableOp"
  input: "MobilenetV2/expanded_conv_8/depthwise/BatchNorm/beta"
  input: "save/Identity_230"
  attr {
    key: "dtype"
    value {
      type: DT_FLOAT
    }
  }
  attr {
    key: "validate_shape"
    value {
      b: false
    }
  }
}
node {
  name: "save/Identity_231"
  op: "Identity"
  input: "save/RestoreV2:231"
  attr {
    key: "T"
    value {
      type: DT_FLOAT
    }
  }
}
node {
  name: "save/AssignVariableOp_231"
  op: "AssignVariableOp"
  input: "MobilenetV2/expanded_conv_8/depthwise/BatchNorm/gamma"
  input: "save/Identity_231"
  attr {
    key: "dtype"
    value {
      type: DT_FLOAT
    }
  }
  attr {
    key: "validate_shape"
    value {
      b: false
    }
  }
}
node {
  name: "save/Identity_232"
  op: "Identity"
  input: "save/RestoreV2:232"
  attr {
    key: "T"
    value {
      type: DT_FLOAT
    }
  }
}
node {
  name: "save/AssignVariableOp_232"
  op: "AssignVariableOp"
  input: "MobilenetV2/expanded_conv_8/depthwise/BatchNorm/moving_mean"
  input: "save/Identity_232"
  attr {
    key: "dtype"
    value {
      type: DT_FLOAT
    }
  }
  attr {
    key: "validate_shape"
    value {
      b: false
    }
  }
}
node {
  name: "save/Identity_233"
  op: "Identity"
  input: "save/RestoreV2:233"
  attr {
    key: "T"
    value {
      type: DT_FLOAT
    }
  }
}
node {
  name: "save/AssignVariableOp_233"
  op: "AssignVariableOp"
  input: "MobilenetV2/expanded_conv_8/depthwise/BatchNorm/moving_variance"
  input: "save/Identity_233"
  attr {
    key: "dtype"
    value {
      type: DT_FLOAT
    }
  }
  attr {
    key: "validate_shape"
    value {
      b: false
    }
  }
}
node {
  name: "save/Identity_234"
  op: "Identity"
  input: "save/RestoreV2:234"
  attr {
    key: "T"
    value {
      type: DT_FLOAT
    }
  }
}
node {
  name: "save/AssignVariableOp_234"
  op: "AssignVariableOp"
  input: "MobilenetV2/expanded_conv_8/depthwise/depthwise_weights"
  input: "save/Identity_234"
  attr {
    key: "dtype"
    value {
      type: DT_FLOAT
    }
  }
  attr {
    key: "validate_shape"
    value {
      b: false
    }
  }
}
node {
  name: "save/Identity_235"
  op: "Identity"
  input: "save/RestoreV2:235"
  attr {
    key: "T"
    value {
      type: DT_FLOAT
    }
  }
}
node {
  name: "save/AssignVariableOp_235"
  op: "AssignVariableOp"
  input: "MobilenetV2/expanded_conv_8/expand/BatchNorm/beta"
  input: "save/Identity_235"
  attr {
    key: "dtype"
    value {
      type: DT_FLOAT
    }
  }
  attr {
    key: "validate_shape"
    value {
      b: false
    }
  }
}
node {
  name: "save/Identity_236"
  op: "Identity"
  input: "save/RestoreV2:236"
  attr {
    key: "T"
    value {
      type: DT_FLOAT
    }
  }
}
node {
  name: "save/AssignVariableOp_236"
  op: "AssignVariableOp"
  input: "MobilenetV2/expanded_conv_8/expand/BatchNorm/gamma"
  input: "save/Identity_236"
  attr {
    key: "dtype"
    value {
      type: DT_FLOAT
    }
  }
  attr {
    key: "validate_shape"
    value {
      b: false
    }
  }
}
node {
  name: "save/Identity_237"
  op: "Identity"
  input: "save/RestoreV2:237"
  attr {
    key: "T"
    value {
      type: DT_FLOAT
    }
  }
}
node {
  name: "save/AssignVariableOp_237"
  op: "AssignVariableOp"
  input: "MobilenetV2/expanded_conv_8/expand/BatchNorm/moving_mean"
  input: "save/Identity_237"
  attr {
    key: "dtype"
    value {
      type: DT_FLOAT
    }
  }
  attr {
    key: "validate_shape"
    value {
      b: false
    }
  }
}
node {
  name: "save/Identity_238"
  op: "Identity"
  input: "save/RestoreV2:238"
  attr {
    key: "T"
    value {
      type: DT_FLOAT
    }
  }
}
node {
  name: "save/AssignVariableOp_238"
  op: "AssignVariableOp"
  input: "MobilenetV2/expanded_conv_8/expand/BatchNorm/moving_variance"
  input: "save/Identity_238"
  attr {
    key: "dtype"
    value {
      type: DT_FLOAT
    }
  }
  attr {
    key: "validate_shape"
    value {
      b: false
    }
  }
}
node {
  name: "save/Identity_239"
  op: "Identity"
  input: "save/RestoreV2:239"
  attr {
    key: "T"
    value {
      type: DT_FLOAT
    }
  }
}
node {
  name: "save/AssignVariableOp_239"
  op: "AssignVariableOp"
  input: "MobilenetV2/expanded_conv_8/expand/weights"
  input: "save/Identity_239"
  attr {
    key: "dtype"
    value {
      type: DT_FLOAT
    }
  }
  attr {
    key: "validate_shape"
    value {
      b: false
    }
  }
}
node {
  name: "save/Identity_240"
  op: "Identity"
  input: "save/RestoreV2:240"
  attr {
    key: "T"
    value {
      type: DT_FLOAT
    }
  }
}
node {
  name: "save/AssignVariableOp_240"
  op: "AssignVariableOp"
  input: "MobilenetV2/expanded_conv_8/project/BatchNorm/beta"
  input: "save/Identity_240"
  attr {
    key: "dtype"
    value {
      type: DT_FLOAT
    }
  }
  attr {
    key: "validate_shape"
    value {
      b: false
    }
  }
}
node {
  name: "save/Identity_241"
  op: "Identity"
  input: "save/RestoreV2:241"
  attr {
    key: "T"
    value {
      type: DT_FLOAT
    }
  }
}
node {
  name: "save/AssignVariableOp_241"
  op: "AssignVariableOp"
  input: "MobilenetV2/expanded_conv_8/project/BatchNorm/gamma"
  input: "save/Identity_241"
  attr {
    key: "dtype"
    value {
      type: DT_FLOAT
    }
  }
  attr {
    key: "validate_shape"
    value {
      b: false
    }
  }
}
node {
  name: "save/Identity_242"
  op: "Identity"
  input: "save/RestoreV2:242"
  attr {
    key: "T"
    value {
      type: DT_FLOAT
    }
  }
}
node {
  name: "save/AssignVariableOp_242"
  op: "AssignVariableOp"
  input: "MobilenetV2/expanded_conv_8/project/BatchNorm/moving_mean"
  input: "save/Identity_242"
  attr {
    key: "dtype"
    value {
      type: DT_FLOAT
    }
  }
  attr {
    key: "validate_shape"
    value {
      b: false
    }
  }
}
node {
  name: "save/Identity_243"
  op: "Identity"
  input: "save/RestoreV2:243"
  attr {
    key: "T"
    value {
      type: DT_FLOAT
    }
  }
}
node {
  name: "save/AssignVariableOp_243"
  op: "AssignVariableOp"
  input: "MobilenetV2/expanded_conv_8/project/BatchNorm/moving_variance"
  input: "save/Identity_243"
  attr {
    key: "dtype"
    value {
      type: DT_FLOAT
    }
  }
  attr {
    key: "validate_shape"
    value {
      b: false
    }
  }
}
node {
  name: "save/Identity_244"
  op: "Identity"
  input: "save/RestoreV2:244"
  attr {
    key: "T"
    value {
      type: DT_FLOAT
    }
  }
}
node {
  name: "save/AssignVariableOp_244"
  op: "AssignVariableOp"
  input: "MobilenetV2/expanded_conv_8/project/weights"
  input: "save/Identity_244"
  attr {
    key: "dtype"
    value {
      type: DT_FLOAT
    }
  }
  attr {
    key: "validate_shape"
    value {
      b: false
    }
  }
}
node {
  name: "save/Identity_245"
  op: "Identity"
  input: "save/RestoreV2:245"
  attr {
    key: "T"
    value {
      type: DT_FLOAT
    }
  }
}
node {
  name: "save/AssignVariableOp_245"
  op: "AssignVariableOp"
  input: "MobilenetV2/expanded_conv_9/depthwise/BatchNorm/beta"
  input: "save/Identity_245"
  attr {
    key: "dtype"
    value {
      type: DT_FLOAT
    }
  }
  attr {
    key: "validate_shape"
    value {
      b: false
    }
  }
}
node {
  name: "save/Identity_246"
  op: "Identity"
  input: "save/RestoreV2:246"
  attr {
    key: "T"
    value {
      type: DT_FLOAT
    }
  }
}
node {
  name: "save/AssignVariableOp_246"
  op: "AssignVariableOp"
  input: "MobilenetV2/expanded_conv_9/depthwise/BatchNorm/gamma"
  input: "save/Identity_246"
  attr {
    key: "dtype"
    value {
      type: DT_FLOAT
    }
  }
  attr {
    key: "validate_shape"
    value {
      b: false
    }
  }
}
node {
  name: "save/Identity_247"
  op: "Identity"
  input: "save/RestoreV2:247"
  attr {
    key: "T"
    value {
      type: DT_FLOAT
    }
  }
}
node {
  name: "save/AssignVariableOp_247"
  op: "AssignVariableOp"
  input: "MobilenetV2/expanded_conv_9/depthwise/BatchNorm/moving_mean"
  input: "save/Identity_247"
  attr {
    key: "dtype"
    value {
      type: DT_FLOAT
    }
  }
  attr {
    key: "validate_shape"
    value {
      b: false
    }
  }
}
node {
  name: "save/Identity_248"
  op: "Identity"
  input: "save/RestoreV2:248"
  attr {
    key: "T"
    value {
      type: DT_FLOAT
    }
  }
}
node {
  name: "save/AssignVariableOp_248"
  op: "AssignVariableOp"
  input: "MobilenetV2/expanded_conv_9/depthwise/BatchNorm/moving_variance"
  input: "save/Identity_248"
  attr {
    key: "dtype"
    value {
      type: DT_FLOAT
    }
  }
  attr {
    key: "validate_shape"
    value {
      b: false
    }
  }
}
node {
  name: "save/Identity_249"
  op: "Identity"
  input: "save/RestoreV2:249"
  attr {
    key: "T"
    value {
      type: DT_FLOAT
    }
  }
}
node {
  name: "save/AssignVariableOp_249"
  op: "AssignVariableOp"
  input: "MobilenetV2/expanded_conv_9/depthwise/depthwise_weights"
  input: "save/Identity_249"
  attr {
    key: "dtype"
    value {
      type: DT_FLOAT
    }
  }
  attr {
    key: "validate_shape"
    value {
      b: false
    }
  }
}
node {
  name: "save/Identity_250"
  op: "Identity"
  input: "save/RestoreV2:250"
  attr {
    key: "T"
    value {
      type: DT_FLOAT
    }
  }
}
node {
  name: "save/AssignVariableOp_250"
  op: "AssignVariableOp"
  input: "MobilenetV2/expanded_conv_9/expand/BatchNorm/beta"
  input: "save/Identity_250"
  attr {
    key: "dtype"
    value {
      type: DT_FLOAT
    }
  }
  attr {
    key: "validate_shape"
    value {
      b: false
    }
  }
}
node {
  name: "save/Identity_251"
  op: "Identity"
  input: "save/RestoreV2:251"
  attr {
    key: "T"
    value {
      type: DT_FLOAT
    }
  }
}
node {
  name: "save/AssignVariableOp_251"
  op: "AssignVariableOp"
  input: "MobilenetV2/expanded_conv_9/expand/BatchNorm/gamma"
  input: "save/Identity_251"
  attr {
    key: "dtype"
    value {
      type: DT_FLOAT
    }
  }
  attr {
    key: "validate_shape"
    value {
      b: false
    }
  }
}
node {
  name: "save/Identity_252"
  op: "Identity"
  input: "save/RestoreV2:252"
  attr {
    key: "T"
    value {
      type: DT_FLOAT
    }
  }
}
node {
  name: "save/AssignVariableOp_252"
  op: "AssignVariableOp"
  input: "MobilenetV2/expanded_conv_9/expand/BatchNorm/moving_mean"
  input: "save/Identity_252"
  attr {
    key: "dtype"
    value {
      type: DT_FLOAT
    }
  }
  attr {
    key: "validate_shape"
    value {
      b: false
    }
  }
}
node {
  name: "save/Identity_253"
  op: "Identity"
  input: "save/RestoreV2:253"
  attr {
    key: "T"
    value {
      type: DT_FLOAT
    }
  }
}
node {
  name: "save/AssignVariableOp_253"
  op: "AssignVariableOp"
  input: "MobilenetV2/expanded_conv_9/expand/BatchNorm/moving_variance"
  input: "save/Identity_253"
  attr {
    key: "dtype"
    value {
      type: DT_FLOAT
    }
  }
  attr {
    key: "validate_shape"
    value {
      b: false
    }
  }
}
node {
  name: "save/Identity_254"
  op: "Identity"
  input: "save/RestoreV2:254"
  attr {
    key: "T"
    value {
      type: DT_FLOAT
    }
  }
}
node {
  name: "save/AssignVariableOp_254"
  op: "AssignVariableOp"
  input: "MobilenetV2/expanded_conv_9/expand/weights"
  input: "save/Identity_254"
  attr {
    key: "dtype"
    value {
      type: DT_FLOAT
    }
  }
  attr {
    key: "validate_shape"
    value {
      b: false
    }
  }
}
node {
  name: "save/Identity_255"
  op: "Identity"
  input: "save/RestoreV2:255"
  attr {
    key: "T"
    value {
      type: DT_FLOAT
    }
  }
}
node {
  name: "save/AssignVariableOp_255"
  op: "AssignVariableOp"
  input: "MobilenetV2/expanded_conv_9/project/BatchNorm/beta"
  input: "save/Identity_255"
  attr {
    key: "dtype"
    value {
      type: DT_FLOAT
    }
  }
  attr {
    key: "validate_shape"
    value {
      b: false
    }
  }
}
node {
  name: "save/Identity_256"
  op: "Identity"
  input: "save/RestoreV2:256"
  attr {
    key: "T"
    value {
      type: DT_FLOAT
    }
  }
}
node {
  name: "save/AssignVariableOp_256"
  op: "AssignVariableOp"
  input: "MobilenetV2/expanded_conv_9/project/BatchNorm/gamma"
  input: "save/Identity_256"
  attr {
    key: "dtype"
    value {
      type: DT_FLOAT
    }
  }
  attr {
    key: "validate_shape"
    value {
      b: false
    }
  }
}
node {
  name: "save/Identity_257"
  op: "Identity"
  input: "save/RestoreV2:257"
  attr {
    key: "T"
    value {
      type: DT_FLOAT
    }
  }
}
node {
  name: "save/AssignVariableOp_257"
  op: "AssignVariableOp"
  input: "MobilenetV2/expanded_conv_9/project/BatchNorm/moving_mean"
  input: "save/Identity_257"
  attr {
    key: "dtype"
    value {
      type: DT_FLOAT
    }
  }
  attr {
    key: "validate_shape"
    value {
      b: false
    }
  }
}
node {
  name: "save/Identity_258"
  op: "Identity"
  input: "save/RestoreV2:258"
  attr {
    key: "T"
    value {
      type: DT_FLOAT
    }
  }
}
node {
  name: "save/AssignVariableOp_258"
  op: "AssignVariableOp"
  input: "MobilenetV2/expanded_conv_9/project/BatchNorm/moving_variance"
  input: "save/Identity_258"
  attr {
    key: "dtype"
    value {
      type: DT_FLOAT
    }
  }
  attr {
    key: "validate_shape"
    value {
      b: false
    }
  }
}
node {
  name: "save/Identity_259"
  op: "Identity"
  input: "save/RestoreV2:259"
  attr {
    key: "T"
    value {
      type: DT_FLOAT
    }
  }
}
node {
  name: "save/AssignVariableOp_259"
  op: "AssignVariableOp"
  input: "MobilenetV2/expanded_conv_9/project/weights"
  input: "save/Identity_259"
  attr {
    key: "dtype"
    value {
      type: DT_FLOAT
    }
  }
  attr {
    key: "validate_shape"
    value {
      b: false
    }
  }
}
node {
  name: "save/Identity_260"
  op: "Identity"
  input: "save/RestoreV2:260"
  attr {
    key: "T"
    value {
      type: DT_FLOAT
    }
  }
}
node {
  name: "save/AssignVariableOp_260"
  op: "AssignVariableOp"
  input: "pose/locref_pred/block4/biases"
  input: "save/Identity_260"
  attr {
    key: "dtype"
    value {
      type: DT_FLOAT
    }
  }
  attr {
    key: "validate_shape"
    value {
      b: false
    }
  }
}
node {
  name: "save/Identity_261"
  op: "Identity"
  input: "save/RestoreV2:261"
  attr {
    key: "T"
    value {
      type: DT_FLOAT
    }
  }
}
node {
  name: "save/AssignVariableOp_261"
  op: "AssignVariableOp"
  input: "pose/locref_pred/block4/weights"
  input: "save/Identity_261"
  attr {
    key: "dtype"
    value {
      type: DT_FLOAT
    }
  }
  attr {
    key: "validate_shape"
    value {
      b: false
    }
  }
}
node {
  name: "save/Identity_262"
  op: "Identity"
  input: "save/RestoreV2:262"
  attr {
    key: "T"
    value {
      type: DT_FLOAT
    }
  }
}
node {
  name: "save/AssignVariableOp_262"
  op: "AssignVariableOp"
  input: "pose/part_pred/block4/biases"
  input: "save/Identity_262"
  attr {
    key: "dtype"
    value {
      type: DT_FLOAT
    }
  }
  attr {
    key: "validate_shape"
    value {
      b: false
    }
  }
}
node {
  name: "save/Identity_263"
  op: "Identity"
  input: "save/RestoreV2:263"
  attr {
    key: "T"
    value {
      type: DT_FLOAT
    }
  }
}
node {
  name: "save/AssignVariableOp_263"
  op: "AssignVariableOp"
  input: "pose/part_pred/block4/weights"
  input: "save/Identity_263"
  attr {
    key: "dtype"
    value {
      type: DT_FLOAT
    }
  }
  attr {
    key: "validate_shape"
    value {
      b: false
    }
  }
}
node {
  name: "save/restore_all"
  op: "NoOp"
  input: "^save/AssignVariableOp"
  input: "^save/AssignVariableOp_1"
  input: "^save/AssignVariableOp_10"
  input: "^save/AssignVariableOp_100"
  input: "^save/AssignVariableOp_101"
  input: "^save/AssignVariableOp_102"
  input: "^save/AssignVariableOp_103"
  input: "^save/AssignVariableOp_104"
  input: "^save/AssignVariableOp_105"
  input: "^save/AssignVariableOp_106"
  input: "^save/AssignVariableOp_107"
  input: "^save/AssignVariableOp_108"
  input: "^save/AssignVariableOp_109"
  input: "^save/AssignVariableOp_11"
  input: "^save/AssignVariableOp_110"
  input: "^save/AssignVariableOp_111"
  input: "^save/AssignVariableOp_112"
  input: "^save/AssignVariableOp_113"
  input: "^save/AssignVariableOp_114"
  input: "^save/AssignVariableOp_115"
  input: "^save/AssignVariableOp_116"
  input: "^save/AssignVariableOp_117"
  input: "^save/AssignVariableOp_118"
  input: "^save/AssignVariableOp_119"
  input: "^save/AssignVariableOp_12"
  input: "^save/AssignVariableOp_120"
  input: "^save/AssignVariableOp_121"
  input: "^save/AssignVariableOp_122"
  input: "^save/AssignVariableOp_123"
  input: "^save/AssignVariableOp_124"
  input: "^save/AssignVariableOp_125"
  input: "^save/AssignVariableOp_126"
  input: "^save/AssignVariableOp_127"
  input: "^save/AssignVariableOp_128"
  input: "^save/AssignVariableOp_129"
  input: "^save/AssignVariableOp_13"
  input: "^save/AssignVariableOp_130"
  input: "^save/AssignVariableOp_131"
  input: "^save/AssignVariableOp_132"
  input: "^save/AssignVariableOp_133"
  input: "^save/AssignVariableOp_134"
  input: "^save/AssignVariableOp_135"
  input: "^save/AssignVariableOp_136"
  input: "^save/AssignVariableOp_137"
  input: "^save/AssignVariableOp_138"
  input: "^save/AssignVariableOp_139"
  input: "^save/AssignVariableOp_14"
  input: "^save/AssignVariableOp_140"
  input: "^save/AssignVariableOp_141"
  input: "^save/AssignVariableOp_142"
  input: "^save/AssignVariableOp_143"
  input: "^save/AssignVariableOp_144"
  input: "^save/AssignVariableOp_145"
  input: "^save/AssignVariableOp_146"
  input: "^save/AssignVariableOp_147"
  input: "^save/AssignVariableOp_148"
  input: "^save/AssignVariableOp_149"
  input: "^save/AssignVariableOp_15"
  input: "^save/AssignVariableOp_150"
  input: "^save/AssignVariableOp_151"
  input: "^save/AssignVariableOp_152"
  input: "^save/AssignVariableOp_153"
  input: "^save/AssignVariableOp_154"
  input: "^save/AssignVariableOp_155"
  input: "^save/AssignVariableOp_156"
  input: "^save/AssignVariableOp_157"
  input: "^save/AssignVariableOp_158"
  input: "^save/AssignVariableOp_159"
  input: "^save/AssignVariableOp_16"
  input: "^save/AssignVariableOp_160"
  input: "^save/AssignVariableOp_161"
  input: "^save/AssignVariableOp_162"
  input: "^save/AssignVariableOp_163"
  input: "^save/AssignVariableOp_164"
  input: "^save/AssignVariableOp_165"
  input: "^save/AssignVariableOp_166"
  input: "^save/AssignVariableOp_167"
  input: "^save/AssignVariableOp_168"
  input: "^save/AssignVariableOp_169"
  input: "^save/AssignVariableOp_17"
  input: "^save/AssignVariableOp_170"
  input: "^save/AssignVariableOp_171"
  input: "^save/AssignVariableOp_172"
  input: "^save/AssignVariableOp_173"
  input: "^save/AssignVariableOp_174"
  input: "^save/AssignVariableOp_175"
  input: "^save/AssignVariableOp_176"
  input: "^save/AssignVariableOp_177"
  input: "^save/AssignVariableOp_178"
  input: "^save/AssignVariableOp_179"
  input: "^save/AssignVariableOp_18"
  input: "^save/AssignVariableOp_180"
  input: "^save/AssignVariableOp_181"
  input: "^save/AssignVariableOp_182"
  input: "^save/AssignVariableOp_183"
  input: "^save/AssignVariableOp_184"
  input: "^save/AssignVariableOp_185"
  input: "^save/AssignVariableOp_186"
  input: "^save/AssignVariableOp_187"
  input: "^save/AssignVariableOp_188"
  input: "^save/AssignVariableOp_189"
  input: "^save/AssignVariableOp_19"
  input: "^save/AssignVariableOp_190"
  input: "^save/AssignVariableOp_191"
  input: "^save/AssignVariableOp_192"
  input: "^save/AssignVariableOp_193"
  input: "^save/AssignVariableOp_194"
  input: "^save/AssignVariableOp_195"
  input: "^save/AssignVariableOp_196"
  input: "^save/AssignVariableOp_197"
  input: "^save/AssignVariableOp_198"
  input: "^save/AssignVariableOp_199"
  input: "^save/AssignVariableOp_2"
  input: "^save/AssignVariableOp_20"
  input: "^save/AssignVariableOp_200"
  input: "^save/AssignVariableOp_201"
  input: "^save/AssignVariableOp_202"
  input: "^save/AssignVariableOp_203"
  input: "^save/AssignVariableOp_204"
  input: "^save/AssignVariableOp_205"
  input: "^save/AssignVariableOp_206"
  input: "^save/AssignVariableOp_207"
  input: "^save/AssignVariableOp_208"
  input: "^save/AssignVariableOp_209"
  input: "^save/AssignVariableOp_21"
  input: "^save/AssignVariableOp_210"
  input: "^save/AssignVariableOp_211"
  input: "^save/AssignVariableOp_212"
  input: "^save/AssignVariableOp_213"
  input: "^save/AssignVariableOp_214"
  input: "^save/AssignVariableOp_215"
  input: "^save/AssignVariableOp_216"
  input: "^save/AssignVariableOp_217"
  input: "^save/AssignVariableOp_218"
  input: "^save/AssignVariableOp_219"
  input: "^save/AssignVariableOp_22"
  input: "^save/AssignVariableOp_220"
  input: "^save/AssignVariableOp_221"
  input: "^save/AssignVariableOp_222"
  input: "^save/AssignVariableOp_223"
  input: "^save/AssignVariableOp_224"
  input: "^save/AssignVariableOp_225"
  input: "^save/AssignVariableOp_226"
  input: "^save/AssignVariableOp_227"
  input: "^save/AssignVariableOp_228"
  input: "^save/AssignVariableOp_229"
  input: "^save/AssignVariableOp_23"
  input: "^save/AssignVariableOp_230"
  input: "^save/AssignVariableOp_231"
  input: "^save/AssignVariableOp_232"
  input: "^save/AssignVariableOp_233"
  input: "^save/AssignVariableOp_234"
  input: "^save/AssignVariableOp_235"
  input: "^save/AssignVariableOp_236"
  input: "^save/AssignVariableOp_237"
  input: "^save/AssignVariableOp_238"
  input: "^save/AssignVariableOp_239"
  input: "^save/AssignVariableOp_24"
  input: "^save/AssignVariableOp_240"
  input: "^save/AssignVariableOp_241"
  input: "^save/AssignVariableOp_242"
  input: "^save/AssignVariableOp_243"
  input: "^save/AssignVariableOp_244"
  input: "^save/AssignVariableOp_245"
  input: "^save/AssignVariableOp_246"
  input: "^save/AssignVariableOp_247"
  input: "^save/AssignVariableOp_248"
  input: "^save/AssignVariableOp_249"
  input: "^save/AssignVariableOp_25"
  input: "^save/AssignVariableOp_250"
  input: "^save/AssignVariableOp_251"
  input: "^save/AssignVariableOp_252"
  input: "^save/AssignVariableOp_253"
  input: "^save/AssignVariableOp_254"
  input: "^save/AssignVariableOp_255"
  input: "^save/AssignVariableOp_256"
  input: "^save/AssignVariableOp_257"
  input: "^save/AssignVariableOp_258"
  input: "^save/AssignVariableOp_259"
  input: "^save/AssignVariableOp_26"
  input: "^save/AssignVariableOp_260"
  input: "^save/AssignVariableOp_261"
  input: "^save/AssignVariableOp_262"
  input: "^save/AssignVariableOp_263"
  input: "^save/AssignVariableOp_27"
  input: "^save/AssignVariableOp_28"
  input: "^save/AssignVariableOp_29"
  input: "^save/AssignVariableOp_3"
  input: "^save/AssignVariableOp_30"
  input: "^save/AssignVariableOp_31"
  input: "^save/AssignVariableOp_32"
  input: "^save/AssignVariableOp_33"
  input: "^save/AssignVariableOp_34"
  input: "^save/AssignVariableOp_35"
  input: "^save/AssignVariableOp_36"
  input: "^save/AssignVariableOp_37"
  input: "^save/AssignVariableOp_38"
  input: "^save/AssignVariableOp_39"
  input: "^save/AssignVariableOp_4"
  input: "^save/AssignVariableOp_40"
  input: "^save/AssignVariableOp_41"
  input: "^save/AssignVariableOp_42"
  input: "^save/AssignVariableOp_43"
  input: "^save/AssignVariableOp_44"
  input: "^save/AssignVariableOp_45"
  input: "^save/AssignVariableOp_46"
  input: "^save/AssignVariableOp_47"
  input: "^save/AssignVariableOp_48"
  input: "^save/AssignVariableOp_49"
  input: "^save/AssignVariableOp_5"
  input: "^save/AssignVariableOp_50"
  input: "^save/AssignVariableOp_51"
  input: "^save/AssignVariableOp_52"
  input: "^save/AssignVariableOp_53"
  input: "^save/AssignVariableOp_54"
  input: "^save/AssignVariableOp_55"
  input: "^save/AssignVariableOp_56"
  input: "^save/AssignVariableOp_57"
  input: "^save/AssignVariableOp_58"
  input: "^save/AssignVariableOp_59"
  input: "^save/AssignVariableOp_6"
  input: "^save/AssignVariableOp_60"
  input: "^save/AssignVariableOp_61"
  input: "^save/AssignVariableOp_62"
  input: "^save/AssignVariableOp_63"
  input: "^save/AssignVariableOp_64"
  input: "^save/AssignVariableOp_65"
  input: "^save/AssignVariableOp_66"
  input: "^save/AssignVariableOp_67"
  input: "^save/AssignVariableOp_68"
  input: "^save/AssignVariableOp_69"
  input: "^save/AssignVariableOp_7"
  input: "^save/AssignVariableOp_70"
  input: "^save/AssignVariableOp_71"
  input: "^save/AssignVariableOp_72"
  input: "^save/AssignVariableOp_73"
  input: "^save/AssignVariableOp_74"
  input: "^save/AssignVariableOp_75"
  input: "^save/AssignVariableOp_76"
  input: "^save/AssignVariableOp_77"
  input: "^save/AssignVariableOp_78"
  input: "^save/AssignVariableOp_79"
  input: "^save/AssignVariableOp_8"
  input: "^save/AssignVariableOp_80"
  input: "^save/AssignVariableOp_81"
  input: "^save/AssignVariableOp_82"
  input: "^save/AssignVariableOp_83"
  input: "^save/AssignVariableOp_84"
  input: "^save/AssignVariableOp_85"
  input: "^save/AssignVariableOp_86"
  input: "^save/AssignVariableOp_87"
  input: "^save/AssignVariableOp_88"
  input: "^save/AssignVariableOp_89"
  input: "^save/AssignVariableOp_9"
  input: "^save/AssignVariableOp_90"
  input: "^save/AssignVariableOp_91"
  input: "^save/AssignVariableOp_92"
  input: "^save/AssignVariableOp_93"
  input: "^save/AssignVariableOp_94"
  input: "^save/AssignVariableOp_95"
  input: "^save/AssignVariableOp_96"
  input: "^save/AssignVariableOp_97"
  input: "^save/AssignVariableOp_98"
  input: "^save/AssignVariableOp_99"
}
node {
  name: "init"
  op: "NoOp"
  input: "^MobilenetV2/Conv/BatchNorm/beta/Assign"
  input: "^MobilenetV2/Conv/BatchNorm/gamma/Assign"
  input: "^MobilenetV2/Conv/BatchNorm/moving_mean/Assign"
  input: "^MobilenetV2/Conv/BatchNorm/moving_variance/Assign"
  input: "^MobilenetV2/Conv/weights/Assign"
  input: "^MobilenetV2/Conv_1/BatchNorm/beta/Assign"
  input: "^MobilenetV2/Conv_1/BatchNorm/gamma/Assign"
  input: "^MobilenetV2/Conv_1/BatchNorm/moving_mean/Assign"
  input: "^MobilenetV2/Conv_1/BatchNorm/moving_variance/Assign"
  input: "^MobilenetV2/Conv_1/weights/Assign"
  input: "^MobilenetV2/expanded_conv/depthwise/BatchNorm/beta/Assign"
  input: "^MobilenetV2/expanded_conv/depthwise/BatchNorm/gamma/Assign"
  input: "^MobilenetV2/expanded_conv/depthwise/BatchNorm/moving_mean/Assign"
  input: "^MobilenetV2/expanded_conv/depthwise/BatchNorm/moving_variance/Assign"
  input: "^MobilenetV2/expanded_conv/depthwise/depthwise_weights/Assign"
  input: "^MobilenetV2/expanded_conv/project/BatchNorm/beta/Assign"
  input: "^MobilenetV2/expanded_conv/project/BatchNorm/gamma/Assign"
  input: "^MobilenetV2/expanded_conv/project/BatchNorm/moving_mean/Assign"
  input: "^MobilenetV2/expanded_conv/project/BatchNorm/moving_variance/Assign"
  input: "^MobilenetV2/expanded_conv/project/weights/Assign"
  input: "^MobilenetV2/expanded_conv_1/depthwise/BatchNorm/beta/Assign"
  input: "^MobilenetV2/expanded_conv_1/depthwise/BatchNorm/gamma/Assign"
  input: "^MobilenetV2/expanded_conv_1/depthwise/BatchNorm/moving_mean/Assign"
  input: "^MobilenetV2/expanded_conv_1/depthwise/BatchNorm/moving_variance/Assign"
  input: "^MobilenetV2/expanded_conv_1/depthwise/depthwise_weights/Assign"
  input: "^MobilenetV2/expanded_conv_1/expand/BatchNorm/beta/Assign"
  input: "^MobilenetV2/expanded_conv_1/expand/BatchNorm/gamma/Assign"
  input: "^MobilenetV2/expanded_conv_1/expand/BatchNorm/moving_mean/Assign"
  input: "^MobilenetV2/expanded_conv_1/expand/BatchNorm/moving_variance/Assign"
  input: "^MobilenetV2/expanded_conv_1/expand/weights/Assign"
  input: "^MobilenetV2/expanded_conv_1/project/BatchNorm/beta/Assign"
  input: "^MobilenetV2/expanded_conv_1/project/BatchNorm/gamma/Assign"
  input: "^MobilenetV2/expanded_conv_1/project/BatchNorm/moving_mean/Assign"
  input: "^MobilenetV2/expanded_conv_1/project/BatchNorm/moving_variance/Assign"
  input: "^MobilenetV2/expanded_conv_1/project/weights/Assign"
  input: "^MobilenetV2/expanded_conv_10/depthwise/BatchNorm/beta/Assign"
  input: "^MobilenetV2/expanded_conv_10/depthwise/BatchNorm/gamma/Assign"
  input: "^MobilenetV2/expanded_conv_10/depthwise/BatchNorm/moving_mean/Assign"
  input: "^MobilenetV2/expanded_conv_10/depthwise/BatchNorm/moving_variance/Assign"
  input: "^MobilenetV2/expanded_conv_10/depthwise/depthwise_weights/Assign"
  input: "^MobilenetV2/expanded_conv_10/expand/BatchNorm/beta/Assign"
  input: "^MobilenetV2/expanded_conv_10/expand/BatchNorm/gamma/Assign"
  input: "^MobilenetV2/expanded_conv_10/expand/BatchNorm/moving_mean/Assign"
  input: "^MobilenetV2/expanded_conv_10/expand/BatchNorm/moving_variance/Assign"
  input: "^MobilenetV2/expanded_conv_10/expand/weights/Assign"
  input: "^MobilenetV2/expanded_conv_10/project/BatchNorm/beta/Assign"
  input: "^MobilenetV2/expanded_conv_10/project/BatchNorm/gamma/Assign"
  input: "^MobilenetV2/expanded_conv_10/project/BatchNorm/moving_mean/Assign"
  input: "^MobilenetV2/expanded_conv_10/project/BatchNorm/moving_variance/Assign"
  input: "^MobilenetV2/expanded_conv_10/project/weights/Assign"
  input: "^MobilenetV2/expanded_conv_11/depthwise/BatchNorm/beta/Assign"
  input: "^MobilenetV2/expanded_conv_11/depthwise/BatchNorm/gamma/Assign"
  input: "^MobilenetV2/expanded_conv_11/depthwise/BatchNorm/moving_mean/Assign"
  input: "^MobilenetV2/expanded_conv_11/depthwise/BatchNorm/moving_variance/Assign"
  input: "^MobilenetV2/expanded_conv_11/depthwise/depthwise_weights/Assign"
  input: "^MobilenetV2/expanded_conv_11/expand/BatchNorm/beta/Assign"
  input: "^MobilenetV2/expanded_conv_11/expand/BatchNorm/gamma/Assign"
  input: "^MobilenetV2/expanded_conv_11/expand/BatchNorm/moving_mean/Assign"
  input: "^MobilenetV2/expanded_conv_11/expand/BatchNorm/moving_variance/Assign"
  input: "^MobilenetV2/expanded_conv_11/expand/weights/Assign"
  input: "^MobilenetV2/expanded_conv_11/project/BatchNorm/beta/Assign"
  input: "^MobilenetV2/expanded_conv_11/project/BatchNorm/gamma/Assign"
  input: "^MobilenetV2/expanded_conv_11/project/BatchNorm/moving_mean/Assign"
  input: "^MobilenetV2/expanded_conv_11/project/BatchNorm/moving_variance/Assign"
  input: "^MobilenetV2/expanded_conv_11/project/weights/Assign"
  input: "^MobilenetV2/expanded_conv_12/depthwise/BatchNorm/beta/Assign"
  input: "^MobilenetV2/expanded_conv_12/depthwise/BatchNorm/gamma/Assign"
  input: "^MobilenetV2/expanded_conv_12/depthwise/BatchNorm/moving_mean/Assign"
  input: "^MobilenetV2/expanded_conv_12/depthwise/BatchNorm/moving_variance/Assign"
  input: "^MobilenetV2/expanded_conv_12/depthwise/depthwise_weights/Assign"
  input: "^MobilenetV2/expanded_conv_12/expand/BatchNorm/beta/Assign"
  input: "^MobilenetV2/expanded_conv_12/expand/BatchNorm/gamma/Assign"
  input: "^MobilenetV2/expanded_conv_12/expand/BatchNorm/moving_mean/Assign"
  input: "^MobilenetV2/expanded_conv_12/expand/BatchNorm/moving_variance/Assign"
  input: "^MobilenetV2/expanded_conv_12/expand/weights/Assign"
  input: "^MobilenetV2/expanded_conv_12/project/BatchNorm/beta/Assign"
  input: "^MobilenetV2/expanded_conv_12/project/BatchNorm/gamma/Assign"
  input: "^MobilenetV2/expanded_conv_12/project/BatchNorm/moving_mean/Assign"
  input: "^MobilenetV2/expanded_conv_12/project/BatchNorm/moving_variance/Assign"
  input: "^MobilenetV2/expanded_conv_12/project/weights/Assign"
  input: "^MobilenetV2/expanded_conv_13/depthwise/BatchNorm/beta/Assign"
  input: "^MobilenetV2/expanded_conv_13/depthwise/BatchNorm/gamma/Assign"
  input: "^MobilenetV2/expanded_conv_13/depthwise/BatchNorm/moving_mean/Assign"
  input: "^MobilenetV2/expanded_conv_13/depthwise/BatchNorm/moving_variance/Assign"
  input: "^MobilenetV2/expanded_conv_13/depthwise/depthwise_weights/Assign"
  input: "^MobilenetV2/expanded_conv_13/expand/BatchNorm/beta/Assign"
  input: "^MobilenetV2/expanded_conv_13/expand/BatchNorm/gamma/Assign"
  input: "^MobilenetV2/expanded_conv_13/expand/BatchNorm/moving_mean/Assign"
  input: "^MobilenetV2/expanded_conv_13/expand/BatchNorm/moving_variance/Assign"
  input: "^MobilenetV2/expanded_conv_13/expand/weights/Assign"
  input: "^MobilenetV2/expanded_conv_13/project/BatchNorm/beta/Assign"
  input: "^MobilenetV2/expanded_conv_13/project/BatchNorm/gamma/Assign"
  input: "^MobilenetV2/expanded_conv_13/project/BatchNorm/moving_mean/Assign"
  input: "^MobilenetV2/expanded_conv_13/project/BatchNorm/moving_variance/Assign"
  input: "^MobilenetV2/expanded_conv_13/project/weights/Assign"
  input: "^MobilenetV2/expanded_conv_14/depthwise/BatchNorm/beta/Assign"
  input: "^MobilenetV2/expanded_conv_14/depthwise/BatchNorm/gamma/Assign"
  input: "^MobilenetV2/expanded_conv_14/depthwise/BatchNorm/moving_mean/Assign"
  input: "^MobilenetV2/expanded_conv_14/depthwise/BatchNorm/moving_variance/Assign"
  input: "^MobilenetV2/expanded_conv_14/depthwise/depthwise_weights/Assign"
  input: "^MobilenetV2/expanded_conv_14/expand/BatchNorm/beta/Assign"
  input: "^MobilenetV2/expanded_conv_14/expand/BatchNorm/gamma/Assign"
  input: "^MobilenetV2/expanded_conv_14/expand/BatchNorm/moving_mean/Assign"
  input: "^MobilenetV2/expanded_conv_14/expand/BatchNorm/moving_variance/Assign"
  input: "^MobilenetV2/expanded_conv_14/expand/weights/Assign"
  input: "^MobilenetV2/expanded_conv_14/project/BatchNorm/beta/Assign"
  input: "^MobilenetV2/expanded_conv_14/project/BatchNorm/gamma/Assign"
  input: "^MobilenetV2/expanded_conv_14/project/BatchNorm/moving_mean/Assign"
  input: "^MobilenetV2/expanded_conv_14/project/BatchNorm/moving_variance/Assign"
  input: "^MobilenetV2/expanded_conv_14/project/weights/Assign"
  input: "^MobilenetV2/expanded_conv_15/depthwise/BatchNorm/beta/Assign"
  input: "^MobilenetV2/expanded_conv_15/depthwise/BatchNorm/gamma/Assign"
  input: "^MobilenetV2/expanded_conv_15/depthwise/BatchNorm/moving_mean/Assign"
  input: "^MobilenetV2/expanded_conv_15/depthwise/BatchNorm/moving_variance/Assign"
  input: "^MobilenetV2/expanded_conv_15/depthwise/depthwise_weights/Assign"
  input: "^MobilenetV2/expanded_conv_15/expand/BatchNorm/beta/Assign"
  input: "^MobilenetV2/expanded_conv_15/expand/BatchNorm/gamma/Assign"
  input: "^MobilenetV2/expanded_conv_15/expand/BatchNorm/moving_mean/Assign"
  input: "^MobilenetV2/expanded_conv_15/expand/BatchNorm/moving_variance/Assign"
  input: "^MobilenetV2/expanded_conv_15/expand/weights/Assign"
  input: "^MobilenetV2/expanded_conv_15/project/BatchNorm/beta/Assign"
  input: "^MobilenetV2/expanded_conv_15/project/BatchNorm/gamma/Assign"
  input: "^MobilenetV2/expanded_conv_15/project/BatchNorm/moving_mean/Assign"
  input: "^MobilenetV2/expanded_conv_15/project/BatchNorm/moving_variance/Assign"
  input: "^MobilenetV2/expanded_conv_15/project/weights/Assign"
  input: "^MobilenetV2/expanded_conv_16/depthwise/BatchNorm/beta/Assign"
  input: "^MobilenetV2/expanded_conv_16/depthwise/BatchNorm/gamma/Assign"
  input: "^MobilenetV2/expanded_conv_16/depthwise/BatchNorm/moving_mean/Assign"
  input: "^MobilenetV2/expanded_conv_16/depthwise/BatchNorm/moving_variance/Assign"
  input: "^MobilenetV2/expanded_conv_16/depthwise/depthwise_weights/Assign"
  input: "^MobilenetV2/expanded_conv_16/expand/BatchNorm/beta/Assign"
  input: "^MobilenetV2/expanded_conv_16/expand/BatchNorm/gamma/Assign"
  input: "^MobilenetV2/expanded_conv_16/expand/BatchNorm/moving_mean/Assign"
  input: "^MobilenetV2/expanded_conv_16/expand/BatchNorm/moving_variance/Assign"
  input: "^MobilenetV2/expanded_conv_16/expand/weights/Assign"
  input: "^MobilenetV2/expanded_conv_16/project/BatchNorm/beta/Assign"
  input: "^MobilenetV2/expanded_conv_16/project/BatchNorm/gamma/Assign"
  input: "^MobilenetV2/expanded_conv_16/project/BatchNorm/moving_mean/Assign"
  input: "^MobilenetV2/expanded_conv_16/project/BatchNorm/moving_variance/Assign"
  input: "^MobilenetV2/expanded_conv_16/project/weights/Assign"
  input: "^MobilenetV2/expanded_conv_2/depthwise/BatchNorm/beta/Assign"
  input: "^MobilenetV2/expanded_conv_2/depthwise/BatchNorm/gamma/Assign"
  input: "^MobilenetV2/expanded_conv_2/depthwise/BatchNorm/moving_mean/Assign"
  input: "^MobilenetV2/expanded_conv_2/depthwise/BatchNorm/moving_variance/Assign"
  input: "^MobilenetV2/expanded_conv_2/depthwise/depthwise_weights/Assign"
  input: "^MobilenetV2/expanded_conv_2/expand/BatchNorm/beta/Assign"
  input: "^MobilenetV2/expanded_conv_2/expand/BatchNorm/gamma/Assign"
  input: "^MobilenetV2/expanded_conv_2/expand/BatchNorm/moving_mean/Assign"
  input: "^MobilenetV2/expanded_conv_2/expand/BatchNorm/moving_variance/Assign"
  input: "^MobilenetV2/expanded_conv_2/expand/weights/Assign"
  input: "^MobilenetV2/expanded_conv_2/project/BatchNorm/beta/Assign"
  input: "^MobilenetV2/expanded_conv_2/project/BatchNorm/gamma/Assign"
  input: "^MobilenetV2/expanded_conv_2/project/BatchNorm/moving_mean/Assign"
  input: "^MobilenetV2/expanded_conv_2/project/BatchNorm/moving_variance/Assign"
  input: "^MobilenetV2/expanded_conv_2/project/weights/Assign"
  input: "^MobilenetV2/expanded_conv_3/depthwise/BatchNorm/beta/Assign"
  input: "^MobilenetV2/expanded_conv_3/depthwise/BatchNorm/gamma/Assign"
  input: "^MobilenetV2/expanded_conv_3/depthwise/BatchNorm/moving_mean/Assign"
  input: "^MobilenetV2/expanded_conv_3/depthwise/BatchNorm/moving_variance/Assign"
  input: "^MobilenetV2/expanded_conv_3/depthwise/depthwise_weights/Assign"
  input: "^MobilenetV2/expanded_conv_3/expand/BatchNorm/beta/Assign"
  input: "^MobilenetV2/expanded_conv_3/expand/BatchNorm/gamma/Assign"
  input: "^MobilenetV2/expanded_conv_3/expand/BatchNorm/moving_mean/Assign"
  input: "^MobilenetV2/expanded_conv_3/expand/BatchNorm/moving_variance/Assign"
  input: "^MobilenetV2/expanded_conv_3/expand/weights/Assign"
  input: "^MobilenetV2/expanded_conv_3/project/BatchNorm/beta/Assign"
  input: "^MobilenetV2/expanded_conv_3/project/BatchNorm/gamma/Assign"
  input: "^MobilenetV2/expanded_conv_3/project/BatchNorm/moving_mean/Assign"
  input: "^MobilenetV2/expanded_conv_3/project/BatchNorm/moving_variance/Assign"
  input: "^MobilenetV2/expanded_conv_3/project/weights/Assign"
  input: "^MobilenetV2/expanded_conv_4/depthwise/BatchNorm/beta/Assign"
  input: "^MobilenetV2/expanded_conv_4/depthwise/BatchNorm/gamma/Assign"
  input: "^MobilenetV2/expanded_conv_4/depthwise/BatchNorm/moving_mean/Assign"
  input: "^MobilenetV2/expanded_conv_4/depthwise/BatchNorm/moving_variance/Assign"
  input: "^MobilenetV2/expanded_conv_4/depthwise/depthwise_weights/Assign"
  input: "^MobilenetV2/expanded_conv_4/expand/BatchNorm/beta/Assign"
  input: "^MobilenetV2/expanded_conv_4/expand/BatchNorm/gamma/Assign"
  input: "^MobilenetV2/expanded_conv_4/expand/BatchNorm/moving_mean/Assign"
  input: "^MobilenetV2/expanded_conv_4/expand/BatchNorm/moving_variance/Assign"
  input: "^MobilenetV2/expanded_conv_4/expand/weights/Assign"
  input: "^MobilenetV2/expanded_conv_4/project/BatchNorm/beta/Assign"
  input: "^MobilenetV2/expanded_conv_4/project/BatchNorm/gamma/Assign"
  input: "^MobilenetV2/expanded_conv_4/project/BatchNorm/moving_mean/Assign"
  input: "^MobilenetV2/expanded_conv_4/project/BatchNorm/moving_variance/Assign"
  input: "^MobilenetV2/expanded_conv_4/project/weights/Assign"
  input: "^MobilenetV2/expanded_conv_5/depthwise/BatchNorm/beta/Assign"
  input: "^MobilenetV2/expanded_conv_5/depthwise/BatchNorm/gamma/Assign"
  input: "^MobilenetV2/expanded_conv_5/depthwise/BatchNorm/moving_mean/Assign"
  input: "^MobilenetV2/expanded_conv_5/depthwise/BatchNorm/moving_variance/Assign"
  input: "^MobilenetV2/expanded_conv_5/depthwise/depthwise_weights/Assign"
  input: "^MobilenetV2/expanded_conv_5/expand/BatchNorm/beta/Assign"
  input: "^MobilenetV2/expanded_conv_5/expand/BatchNorm/gamma/Assign"
  input: "^MobilenetV2/expanded_conv_5/expand/BatchNorm/moving_mean/Assign"
  input: "^MobilenetV2/expanded_conv_5/expand/BatchNorm/moving_variance/Assign"
  input: "^MobilenetV2/expanded_conv_5/expand/weights/Assign"
  input: "^MobilenetV2/expanded_conv_5/project/BatchNorm/beta/Assign"
  input: "^MobilenetV2/expanded_conv_5/project/BatchNorm/gamma/Assign"
  input: "^MobilenetV2/expanded_conv_5/project/BatchNorm/moving_mean/Assign"
  input: "^MobilenetV2/expanded_conv_5/project/BatchNorm/moving_variance/Assign"
  input: "^MobilenetV2/expanded_conv_5/project/weights/Assign"
  input: "^MobilenetV2/expanded_conv_6/depthwise/BatchNorm/beta/Assign"
  input: "^MobilenetV2/expanded_conv_6/depthwise/BatchNorm/gamma/Assign"
  input: "^MobilenetV2/expanded_conv_6/depthwise/BatchNorm/moving_mean/Assign"
  input: "^MobilenetV2/expanded_conv_6/depthwise/BatchNorm/moving_variance/Assign"
  input: "^MobilenetV2/expanded_conv_6/depthwise/depthwise_weights/Assign"
  input: "^MobilenetV2/expanded_conv_6/expand/BatchNorm/beta/Assign"
  input: "^MobilenetV2/expanded_conv_6/expand/BatchNorm/gamma/Assign"
  input: "^MobilenetV2/expanded_conv_6/expand/BatchNorm/moving_mean/Assign"
  input: "^MobilenetV2/expanded_conv_6/expand/BatchNorm/moving_variance/Assign"
  input: "^MobilenetV2/expanded_conv_6/expand/weights/Assign"
  input: "^MobilenetV2/expanded_conv_6/project/BatchNorm/beta/Assign"
  input: "^MobilenetV2/expanded_conv_6/project/BatchNorm/gamma/Assign"
  input: "^MobilenetV2/expanded_conv_6/project/BatchNorm/moving_mean/Assign"
  input: "^MobilenetV2/expanded_conv_6/project/BatchNorm/moving_variance/Assign"
  input: "^MobilenetV2/expanded_conv_6/project/weights/Assign"
  input: "^MobilenetV2/expanded_conv_7/depthwise/BatchNorm/beta/Assign"
  input: "^MobilenetV2/expanded_conv_7/depthwise/BatchNorm/gamma/Assign"
  input: "^MobilenetV2/expanded_conv_7/depthwise/BatchNorm/moving_mean/Assign"
  input: "^MobilenetV2/expanded_conv_7/depthwise/BatchNorm/moving_variance/Assign"
  input: "^MobilenetV2/expanded_conv_7/depthwise/depthwise_weights/Assign"
  input: "^MobilenetV2/expanded_conv_7/expand/BatchNorm/beta/Assign"
  input: "^MobilenetV2/expanded_conv_7/expand/BatchNorm/gamma/Assign"
  input: "^MobilenetV2/expanded_conv_7/expand/BatchNorm/moving_mean/Assign"
  input: "^MobilenetV2/expanded_conv_7/expand/BatchNorm/moving_variance/Assign"
  input: "^MobilenetV2/expanded_conv_7/expand/weights/Assign"
  input: "^MobilenetV2/expanded_conv_7/project/BatchNorm/beta/Assign"
  input: "^MobilenetV2/expanded_conv_7/project/BatchNorm/gamma/Assign"
  input: "^MobilenetV2/expanded_conv_7/project/BatchNorm/moving_mean/Assign"
  input: "^MobilenetV2/expanded_conv_7/project/BatchNorm/moving_variance/Assign"
  input: "^MobilenetV2/expanded_conv_7/project/weights/Assign"
  input: "^MobilenetV2/expanded_conv_8/depthwise/BatchNorm/beta/Assign"
  input: "^MobilenetV2/expanded_conv_8/depthwise/BatchNorm/gamma/Assign"
  input: "^MobilenetV2/expanded_conv_8/depthwise/BatchNorm/moving_mean/Assign"
  input: "^MobilenetV2/expanded_conv_8/depthwise/BatchNorm/moving_variance/Assign"
  input: "^MobilenetV2/expanded_conv_8/depthwise/depthwise_weights/Assign"
  input: "^MobilenetV2/expanded_conv_8/expand/BatchNorm/beta/Assign"
  input: "^MobilenetV2/expanded_conv_8/expand/BatchNorm/gamma/Assign"
  input: "^MobilenetV2/expanded_conv_8/expand/BatchNorm/moving_mean/Assign"
  input: "^MobilenetV2/expanded_conv_8/expand/BatchNorm/moving_variance/Assign"
  input: "^MobilenetV2/expanded_conv_8/expand/weights/Assign"
  input: "^MobilenetV2/expanded_conv_8/project/BatchNorm/beta/Assign"
  input: "^MobilenetV2/expanded_conv_8/project/BatchNorm/gamma/Assign"
  input: "^MobilenetV2/expanded_conv_8/project/BatchNorm/moving_mean/Assign"
  input: "^MobilenetV2/expanded_conv_8/project/BatchNorm/moving_variance/Assign"
  input: "^MobilenetV2/expanded_conv_8/project/weights/Assign"
  input: "^MobilenetV2/expanded_conv_9/depthwise/BatchNorm/beta/Assign"
  input: "^MobilenetV2/expanded_conv_9/depthwise/BatchNorm/gamma/Assign"
  input: "^MobilenetV2/expanded_conv_9/depthwise/BatchNorm/moving_mean/Assign"
  input: "^MobilenetV2/expanded_conv_9/depthwise/BatchNorm/moving_variance/Assign"
  input: "^MobilenetV2/expanded_conv_9/depthwise/depthwise_weights/Assign"
  input: "^MobilenetV2/expanded_conv_9/expand/BatchNorm/beta/Assign"
  input: "^MobilenetV2/expanded_conv_9/expand/BatchNorm/gamma/Assign"
  input: "^MobilenetV2/expanded_conv_9/expand/BatchNorm/moving_mean/Assign"
  input: "^MobilenetV2/expanded_conv_9/expand/BatchNorm/moving_variance/Assign"
  input: "^MobilenetV2/expanded_conv_9/expand/weights/Assign"
  input: "^MobilenetV2/expanded_conv_9/project/BatchNorm/beta/Assign"
  input: "^MobilenetV2/expanded_conv_9/project/BatchNorm/gamma/Assign"
  input: "^MobilenetV2/expanded_conv_9/project/BatchNorm/moving_mean/Assign"
  input: "^MobilenetV2/expanded_conv_9/project/BatchNorm/moving_variance/Assign"
  input: "^MobilenetV2/expanded_conv_9/project/weights/Assign"
  input: "^pose/locref_pred/block4/biases/Assign"
  input: "^pose/locref_pred/block4/weights/Assign"
  input: "^pose/part_pred/block4/biases/Assign"
  input: "^pose/part_pred/block4/weights/Assign"
}
node {
  name: "init_1"
  op: "NoOp"
}
versions {
  producer: 987
}
